model_weights/logreg_model_Coa_ph.pth (torch, 532263 bytes, 4 tensors)

layers.0.weight f4 [256, 512]
000000 34 7e a5 bc 8c 92 65 bc 05 97 1b 3d 24 de 2b 3b
       -0.02020178 -0.01401199 0.03798582 0.0026224935
000010 11 6d f2 bc aa b2 56 3a 5a 9d 3d 3e 69 97 75 3d
       -0.029593023 0.0008190075 0.18517056 0.05995885
000020 9b 55 60 bc 0a e6 00 3c 38 b9 1a 3d 03 fe b7 bc
       -0.013692285 0.007867346 0.037774295 -0.02245999
000030 36 c0 f2 bc fe e3 eb bd a3 4b 1c 3d ba eb 55 bd
       -0.029632669 -0.115180954 0.03815807 -0.05222676
000040 16 6d e4 bc dd 98 92 bd 12 c1 26 bd c5 60 26 3d
       -0.027884047 -0.071580626 -0.04071147 0.04061963
000050 f7 bf 81 3d 4f c6 04 bd 57 b1 66 3c 7a 6f a1 3d
       0.063354425 -0.032415684 0.014080367 0.078825906
000060 a7 fc 3e 3b d8 bb c4 bb 9d 7b 9a 3c c8 b5 2b 3c
       0.0029142292 -0.006003838 0.018857772 0.010480352
000070 91 da 48 bc 4a f6 9e bc 69 e2 7b bb b5 37 a1 bc
       -0.012259142 -0.01940455 -0.0038434512 -0.019679883
000080 04 db 3c 3d 05 e6 25 3d ef c6 80 bd 3a 07 96 bc
       0.046107307 0.040502567 -0.062879436 -0.018313993
000090 49 0a 3a bb 0d 73 b0 bb 9f 19 19 bd b2 d4 7b 3c
       -0.0028387478 -0.005384809 -0.03737795 0.015370535
0000a0 f9 51 03 3d 45 13 b5 bd 88 89 7f 3c dc c9 e2 3d
       0.032060597 -0.08841566 0.015596755 0.11073658
0000b0 23 0a da bc dd a2 78 3c dc ae d9 bd a3 84 8d 3c
       -0.026616162 0.015175548 -0.10629055 0.01727516
0000c0 57 9c fb bc b7 7a 0d bd 8d 31 e4 bc bb 7b f1 3d
       -0.030714197 -0.034540858 -0.027855659 0.11791178
0000d0 48 42 95 3c 40 15 62 3d 67 17 9d 3b 9d 14 04 be
       0.018220082 0.055196047 0.0047940495 -0.12898488
0000e0 29 be b9 bc d3 9b 81 3c 7b 7a bc 3c 1c d0 d5 ba
       -0.022673683 0.015821373 0.023007622 -0.0016312632
0000f0 08 ff ce 3d f9 8f 1c bc 98 c5 ce ba d1 0a 03 bb
       0.10107237 -0.00955581 -0.001577544 -0.001999546
000100 93 34 19 bc fd 2c 4c 3c 0c ea 92 bb 33 0e 40 bd
       -0.009350914 0.012461898 -0.004483467 -0.04688854
000110 da 45 33 bd 27 cb 45 bb 25 d7 4e bc 14 a8 3e 3d
       -0.043767788 -0.0030180903 -0.012624537 0.04654701
000120 c8 a4 1e bc 28 32 d1 bc b1 be 50 bd 1d 4d df bc
       -0.009682842 -0.025536612 -0.050963107 -0.02725845
000130 76 d5 e7 bc fe 0b e1 3c f1 f7 09 3e 0c da 27 bc
       -0.028300028 0.027471539 0.13473488 -0.0102448575
000140 cc 49 34 bb 90 18 c1 bd 10 42 3e 3d 59 55 b1 bb
       -0.0027509807 -0.09428513 0.04644972 -0.0054117856
000150 a4 16 cd 3b 96 64 26 3d fc 87 d4 3b 2c 29 cd 3d
       0.0062588025 0.04062327 0.006485937 0.100176185
000160 ae 49 16 bc 79 99 0a 3d dd ba a0 bc 91 a6 12 bd
       -0.00917284 0.03383777 -0.019620353 -0.03580338
000170 06 a8 3c 3d e9 ac 7c 3d e6 b2 61 bd cc af 88 3b
       0.046058677 0.061688337 -0.05510225 0.0041713472
000180 2b 00 25 3c 1a fe 1f bc 55 6b ca 3b d1 a9 5a bc
       0.010070841 -0.009765172 0.0061773458 -0.013346151
000190 82 f8 e9 3d 18 a4 25 3e ec 68 0a 3b 7d 26 05 be
       0.11424352 0.16175878 0.0021119667 -0.13002963
0001a0 fc bc ef 3c f6 ab aa 3d 0e 81 0b bd 82 38 14 3d
       0.02926492 0.0833358 -0.034058623 0.036186703
0001b0 c1 2b 3b 3c 44 5d 22 3c cb b8 f3 bc 67 76 98 3c
       0.011424006 0.009909932 -0.029751202 0.018611146
0001c0 0b e6 4f bd 81 cd c9 39 bf 18 72 3d 5e 9b 1c 3b
       -0.050756495 0.0003849082 0.05910563 0.0023896317
0001d0 14 d0 31 3d 1f 85 cd 3c 9e d1 47 3c 7c b6 de 3d
       0.04341133 0.025087891 0.012195973 0.1087465
0001e0 e3 80 9f 3d 6f ed c3 bd 8c 9d 61 3c 36 a3 48 3d
       0.07788255 -0.09566771 0.013770472 0.048983775
0001f0 c7 53 94 bc 66 47 14 bd 49 20 46 3d 7a d9 6c bd
       -0.018106354 -0.036200903 0.048370633 -0.05782459
000200 0a e9 54 3b aa d7 4d bd 91 8b b3 3c 38 e7 4c bd
       0.0032487535 -0.0502545 0.021917136 -0.050025195
000210 a8 f7 a0 3c b5 69 88 3c ca 4b 9e 3c 8f b6 aa ba
       0.019649342 0.016651968 0.019323248 -0.0013024377
000220 29 94 5c bd 2c 8b 6b 3b 1a be 41 3d 90 9e 92 3b
       -0.053852234 0.0035941107 0.047300436 0.0044744685
000230 21 98 68 3d 58 d2 c5 3c 54 76 0e be 27 81 55 3e
       0.056785706 0.024148151 -0.13912326 0.20850049
000240 22 98 e0 3b c2 18 6c 3b 7c 8d 27 3e 1c 0b 3b 3e
       0.006854073 0.00360255 0.16362566 0.18265957
000250 0f 1f 13 3d 3d d8 18 3c d3 75 0e 3d 9f 4f 5b bb
       0.03591829 0.009328899 0.034780335 -0.0033464206
000260 7c 89 04 3c 58 e4 a1 3b 0b 78 23 3d 44 f5 ef bc
       0.008089419 0.004940551 0.039909404 -0.029291756
000270 82 b9 65 3d 7f ae a6 3a b0 89 16 bc ff 18 6d bd
       0.056085117 0.0012716799 -0.009188101 -0.057885166
000280 08 95 47 3d 55 42 c8 bc fc 89 d6 bc 81 03 77 bc
       0.04872611 -0.024445692 -0.026188843 -0.015076519
000290 3e 92 04 3d 05 29 d2 b9 44 68 a3 bc c3 7f 75 bd
       0.03236603 -0.00040084883 -0.019947179 -0.059936296
0002a0 9f 07 2e 39 a2 a7 8c 3c c4 25 28 bd ce 08 ef 3c
       0.00016596772 0.017169777 -0.04105164 0.029179003
0002b0 1c bb 15 bd 59 d0 87 3c 2c fa 26 3d 82 f1 c3 bd
       -0.036555395 0.01657884 0.040765926 -0.09567548
0002c0 60 7c 2e bc 0e 10 28 bd 02 39 0a bd 4b 01 b3 bc
       -0.0106497705 -0.041030936 -0.033745773 -0.021851202
0002d0 30 4d 13 3c da 90 da bb ac b7 d0 3c cc df 9f 3d
       0.008990571 -0.0066700997 0.025478207 0.07806358
0002e0 8b 13 a1 3c 50 4e 2a bd 28 75 20 bb df fa 37 3b
       0.01966264 -0.04157859 -0.0024483893 0.0028073115
0002f0 86 9e a5 3b 7a 2f 91 bb 5d 98 84 bc b0 81 84 bc
       0.005054298 -0.0044307085 -0.016185934 -0.016175121
000300 26 4d 8c 3d b3 65 39 3d ab e5 ac 3c cc 36 19 3c
       0.068506524 0.045263004 0.021105608 0.0093514435
000310 24 81 fa 3c 96 2b 89 3d 52 b6 a0 ba f3 40 3f bd
       0.030579157 0.066977665 -0.0012261367 -0.0466928
000320 7b 4a a7 3c b9 85 9d bc f1 b4 3e 3d eb 82 27 3e
       0.020421257 -0.019228803 0.046559278 0.16358535
000330 63 98 2d bb 79 49 4c bb cb 57 59 3d e0 86 16 bc
       -0.0026488535 -0.0031171723 0.05306224 -0.00918743
000340 91 0f e8 bb e7 b0 9c 3c be a3 78 3c 87 e4 48 3c
       -0.007081934 0.019127322 0.015175758 0.012261516
000350 25 62 0d 3d cd cb 98 bc 7d fe 5b 3c 2b d2 a0 ba
       0.034517426 -0.018651867 0.013427374 -0.0012269666
000360 d2 47 a0 bb a1 69 6b bd 92 c7 49 3c 13 c9 fa 3c
       -0.004891374 -0.057473782 0.012315648 0.030613458
000370 72 0e a5 bd 38 92 cd 3c bf 35 ee bc 89 f9 78 bc
       -0.08059396 0.025094137 -0.029078363 -0.015196213
000380 32 93 84 bc 11 7a c8 bd 3d fd 0c bd f6 f6 1a bc
       -0.01618347 -0.09788907 -0.034421194 -0.009458294
000390 ea 92 51 bd 36 6e d4 bc 0b 5a 0d 3d d1 36 5b ba
       -0.0511655 -0.025931459 0.0345097 -0.00083623553
0003a0 af 97 a6 bd bd a9 e1 3b e5 af 82 bc f3 65 0c be
       -0.081344 0.0068866895 -0.015953014 -0.13710766
0003b0 08 e4 df 3b 69 ce 05 ba 53 99 19 bd 60 d0 74 bc
       0.0068326034 -0.0005104305 -0.037499737 -0.014942259
0003c0 72 41 84 bd 43 61 3b 3b 24 f1 cf bc 0b 17 da 3c
       -0.06457795 0.0028591908 -0.02538354 0.026622316
0003d0 a9 0b c7 bd af c4 8b bb cb 23 12 bc 36 9b 4c 3d
       -0.09719021 -0.00426539 -0.0089196665 0.04995271
0003e0 1e ee 32 bd db 31 aa 3b 5d 7e db bc d3 2e f2 3c
       -0.043684117 0.0051939315 -0.026793653 0.029563343
0003f0 8f 0e 80 3c c5 7f ab bd cb 47 c8 bc 27 d7 25 3b
       0.015631942 -0.083739795 -0.024448296 0.0025305243

layers.0.bias f4 [256]
000000 10 ad bb bd a3 85 82 bc 89 d2 e1 bc fa e4 bb bd
       -0.091638684 -0.015932864 -0.027566211 -0.09174533
000010 7e 74 7d bd d4 76 53 bc 62 76 6c bc ad 76 8f bd
       -0.061878674 -0.012906749 -0.014432522 -0.070050575
000020 65 83 64 bc 30 0b 6f bc 1e c2 b6 ba f7 48 d6 bd
       -0.0139473425 -0.01459007 -0.001394335 -0.10463136
000030 2d 82 70 bc e8 06 06 bd be f9 43 bc a0 33 7b bc
       -0.014679474 -0.03272143 -0.011961399 -0.015332133
000040 f2 5c 1f bd 55 cc 83 bc bc c0 16 bd 6d 7e 8d bd
       -0.038907 -0.016088644 -0.0368049 -0.069088794
000050 f2 98 5a bd 30 e8 ad bb 7c 84 5f bc ec 93 80 3d
       -0.053368516 -0.00530722 -0.013642427 0.06278214
000060 c3 1f 4f bc f9 13 96 bd fe 80 79 bb 5d 84 8c bd
       -0.01264185 -0.07328028 -0.003807127 -0.06861184
000070 4e 87 03 be d6 90 49 bd 1f 89 49 bc 33 e3 1b be
       -0.12844583 -0.049210392 -0.012300759 -0.15223388
000080 32 76 54 bc 6f 74 c9 bd ed e8 0f bc 2e 7b 97 3c
       -0.012967633 -0.09836661 -0.008783561 0.018491354
000090 1a 65 83 bc 4c 2d 76 bc 5c 0a 61 bc 2f c7 12 bd
       -0.01603942 -0.015025448 -0.01373538 -0.035834488
0000a0 e5 79 68 bc 51 7d de bc 24 9a 31 bc 56 cd 46 bc
       -0.014189218 -0.027159365 -0.010839973 -0.012133917
0000b0 d0 e7 a9 3d 68 45 70 bc 87 39 46 bc df 5e bf bc
       0.08296168 -0.014664985 -0.0120986765 -0.023360668
0000c0 b4 f7 62 bc 72 6a 57 3b f9 6e a6 bd 17 8a 78 bc
       -0.013853002 0.0032869843 -0.08126635 -0.015169642
0000d0 c7 c0 23 bc 59 67 7a bc b2 66 15 bd df c3 6a bc
       -0.009994692 -0.015283429 -0.03647489 -0.014328926
0000e0 e8 6a 6f bc 61 b7 66 bc 05 94 b1 bc 5f 18 5e 3c
       -0.014612891 -0.014081807 -0.021677027 0.013555615
0000f0 6a db 61 bd dc 15 ab bb b6 81 b7 bd 6f 44 57 bc
       -0.05514089 -0.0052211117 -0.08960287 -0.013138874
000100 11 12 13 bc e0 c6 79 bc 19 2a 86 bc d3 d7 b8 bd
       -0.008976475 -0.015245169 -0.016377496 -0.0902554
000110 3f 6f 71 bc 00 e6 59 bd 17 0d 55 bc 27 04 99 3c
       -0.014735996 -0.05319786 -0.013003609 0.018678738
000120 96 9e 36 bc 51 17 f0 3b fb 98 76 ba 43 65 ce bd
       -0.011146208 0.0073269983 -0.0009406951 -0.10077908
000130 d0 9e f7 3b 08 fa 3f bc 69 21 65 bc d4 7b 3c be
       0.0075567737 -0.011717327 -0.013985016 -0.18406612
000140 cb fe 54 bc f9 7b 87 bd 54 f2 01 bd 69 d2 77 bc
       -0.0130002005 -0.06615443 -0.031725243 -0.015125849
000150 23 95 5b bc 5b f1 17 be af a1 95 bd 4f 4e 84 bc
       -0.013402256 -0.14838164 -0.07306229 -0.016150622
000160 75 de a4 bd e3 42 ed bd a1 db 80 3d a3 7d 2b bc
       -0.08050243 -0.11585023 0.06291891 -0.010466966
000170 2f b4 a5 bc e1 41 2f bc 7f 1f 7f bd 5f 5f 00 3d
       -0.02022752 -0.010696859 -0.062285896 0.031340953
000180 90 d4 9e 3c fc ea 23 bc 34 3c d4 bd 79 0d 89 bc
       0.019388467 -0.010004755 -0.10363045 -0.016730057
000190 fd d2 5c 3c f9 88 d6 3d 17 de 41 bc be d1 64 bc
       0.013478038 0.10475344 -0.0118327355 -0.013966022
0001a0 aa 81 1d 3c 3e cb c1 bc 5f 8a 92 bb d2 c5 34 3d
       0.009613434 -0.023656484 -0.0044720615 0.04413397
0001b0 ac c3 d8 3d d0 1b c4 bb b4 3a b1 bb 02 18 84 bb
       0.105841964 -0.005984761 -0.0054086093 -0.0040311823
0001c0 14 3c 6e bc 2a a0 d7 bc fe d5 63 bc 3b 5e 22 3c
       -0.014540691 -0.02632149 -0.013906 0.009910162
0001d0 83 a6 21 be 6f 7e 3e bc f8 26 ba 3c d7 5f c3 bd
       -0.15786175 -0.011626824 0.02272366 -0.095397644
0001e0 90 09 6c bc 99 60 68 bc 97 4b 3d bd 5d a6 85 bc
       -0.014406577 -0.014183187 -0.046214666 -0.01631468
0001f0 65 41 3e ba db 53 74 bc f3 2f b7 bc 14 21 b8 bd
       -0.00072576693 -0.014912571 -0.022361731 -0.08990684
000200 ea 2e 65 bc 09 7f af bd 02 f4 2e bc 4d d6 7c bc
       -0.013988236 -0.08569152 -0.010678293 -0.015431953
000210 a3 11 a0 3b 61 4f 78 bc 33 45 11 bc ef 08 7e bd
       0.004884915 -0.015155644 -0.008866596 -0.06202024
000220 e7 dd 1a bc f4 79 b2 ba 8a 68 5f bb e4 7a 82 bb
       -0.00945232 -0.0013616667 -0.003408941 -0.003981935
000230 f1 7c 27 bc 61 45 c5 3b 2e d8 fb bd f7 74 37 bc
       -0.010222659 0.0060202335 -0.122970924 -0.01119732
000240 ab 28 c1 3d c6 51 5c bc db f2 f4 bd 9f be dd bd
       0.09431585 -0.013447231 -0.119603835 -0.10827374
000250 89 07 79 bc 60 0c 81 bc fa 95 57 3d 95 5e 55 3c
       -0.01519955 -0.015752971 0.052633263 0.013023038
000260 29 d1 51 bc 50 68 ad bd c6 f4 5f bd 57 43 1e be
       -0.012806215 -0.08467162 -0.054676794 -0.15455376
000270 ee 81 b4 bb 6c b3 74 bc 87 fd 35 bc c7 2d 93 bd
       -0.005508653 -0.014935356 -0.011107809 -0.07186466
000280 2a f4 ac bc 14 9a 8d bd b6 dd 94 bd 05 2f 7a bc
       -0.02111252 -0.06914154 -0.072688505 -0.015269999
000290 3c 98 5f bd a7 4a 0c bc 4f 35 fa bb 28 19 0f be
       -0.05458854 -0.00856272 -0.0076357494 -0.1397444
0002a0 17 77 98 3d 69 0e dc bc 62 55 0b bc 7f 56 ac 3d
       0.074445896 -0.02686234 -0.008504244 0.08414935
0002b0 33 fa fd ba 3d 09 c2 bc ab 33 a9 3c c8 ac 20 be
       -0.0019376933 -0.023686046 0.02065452 -0.15690911
0002c0 ae af b2 bd 9a d0 b1 3a 1e 5d c4 bb 03 b3 b3 bd
       -0.087249145 0.0013566196 -0.0059925457 -0.08774378
0002d0 83 6c dd bd 22 32 aa 3b 95 12 8a ba d2 e2 65 bc
       -0.108117126 0.0051939646 -0.0010534102 -0.014031129
0002e0 0e b6 fe bb 60 1e 71 bd 90 5d e9 bd 21 c5 7a 3c
       -0.0077731675 -0.05886686 -0.11394799 0.015305788
0002f0 db 6a 60 bc 06 ec a8 bb db 1b b2 bd ea d5 91 bc
       -0.013697351 -0.0051550893 -0.08696719 -0.017802197
000300 c6 26 74 bc 58 7e 75 bc dd a4 e8 3b 4a 34 53 bc
       -0.014901822 -0.014983736 0.0070997314 -0.012890885
000310 e7 4e 71 bb f1 64 16 bc 01 1b d9 bd fb 2c 61 bc
       -0.003682071 -0.00917934 -0.10600854 -0.013743634
000320 28 c1 c8 bc 06 6c a9 bc 2c 59 61 bb 1a 22 3b bd
       -0.024506167 -0.020681392 -0.0034385426 -0.04568682
000330 02 d8 6d 3c 84 20 10 bc dd 97 2d 3c 00 bb 76 bc
       0.014516832 -0.008796815 0.010595289 -0.015059233
000340 48 2d da bd 32 e2 da 3c 4b 7a 8a 3d 14 bd 76 bc
       -0.10653168 0.026719186 0.06761607 -0.015059728
000350 43 92 9b bc 12 a1 a8 bc 2d f0 8d bc fa b7 74 bc
       -0.018990641 -0.020584617 -0.017326439 -0.014936442
000360 87 76 0a bc 2f 0d aa bd 32 52 84 bc 81 a2 74 bc
       -0.008451111 -0.08303296 -0.016152475 -0.014931322
000370 7a f5 45 3c b3 ad 4e bc 95 fe c0 bd c6 a1 62 bc
       0.012082452 -0.012614655 -0.09423558 -0.013832515
000380 e0 47 67 bc 63 72 48 bc 6b 08 f4 3c 8f c9 b5 3c
       -0.014116257 -0.012234303 0.02978917 0.022190837
000390 5f 29 ae 3c f7 01 b4 bd 3d 10 ff bc 01 48 c0 3c
       0.021259962 -0.08789437 -0.031135673 0.023471834
0003a0 f0 2c 6b bc e1 2c 30 bd 26 2d 64 bc a4 07 6b bc
       -0.014353976 -0.04301155 -0.01392678 -0.014345083
0003b0 7f 96 6c bd 87 a5 42 bc 85 ef ee bc 72 b0 91 bc
       -0.05776071 -0.011880285 -0.029166946 -0.017784331
0003c0 14 7e e1 3c 66 ca d3 bc 57 13 6c bc d6 02 d6 bc
       0.027525939 -0.025853347 -0.014408908 -0.0261244
0003d0 41 98 16 be 00 c0 76 bd dd 52 00 bb 6d 3f 72 bc
       -0.14706518 -0.0602417 -0.001958064 -0.01478563
0003e0 e5 8a e1 bd 26 74 12 bc 83 ae 66 bc 9d 3b 41 bc
       -0.1101282 -0.008938825 -0.014079693 -0.011793998
0003f0 90 a4 22 bd 51 3a 65 bc d5 e7 64 bc 53 b8 9e ba
       -0.03970772 -0.0139909545 -0.013971289 -0.0012109376

layers.1.weight f4 [5, 256]
000000 c3 8f 60 3e 46 d7 01 3c 94 8a 8b 3e f5 31 2f be
       0.2192984 0.00792486 0.27254164 -0.17108901
000010 ac e0 b8 3e 5b 87 3d 3d 89 73 af be fc 67 b4 be
       0.3610891 0.046271663 -0.34267834 -0.35235584
000020 42 32 f5 3e aa 1e 05 be 4e 41 1c be a6 db d4 bd
       0.47889906 -0.12999979 -0.15259287 -0.10393457
000030 0a 3f 4e bd 6f 8e cd 3d e1 28 c6 be 1a b6 ae bd
       -0.050353087 0.10036933 -0.38703063 -0.08530827
000040 dd 68 dc 3d 6b d7 c8 bd 33 a6 14 3e 16 2b 95 be
       0.107621886 -0.09806713 0.14516525 -0.29134434
000050 81 eb c9 3d e4 e8 cc 3e 88 38 4c 3a cc 3e ae 3e
       0.09859372 0.4002143 0.0007790406 0.34032285
000060 de c4 41 3d 52 2f aa be 42 bd aa be 37 91 51 be
       0.047306888 -0.33239228 -0.33347517 -0.20465551
000070 9b 67 b3 be 80 17 c0 be 6d 45 db bd 7f aa a7 3e
       -0.35039982 -0.3751793 -0.10706601 0.32747266
000080 1b 3d 62 3b 62 d3 a0 be d8 c7 7f be 4c 18 c4 be
       0.0034521285 -0.31411272 -0.24978578 -0.38299787
000090 0a 43 93 be fe 39 91 3e 32 7e da be 9d 13 34 3e
       -0.28762084 0.28364557 -0.42674404 0.17585607
0000a0 7a cb 5a 3b 55 2f 7b 3e 51 00 00 be 81 6e 8a be
       0.0033385442 0.24529774 -0.1250012 -0.27037433
0000b0 ab e1 90 3e dd d7 16 3d a3 5c b9 be da 23 85 be
       0.2829717 0.036826957 -0.3620349 -0.26003915
0000c0 a1 08 1b be 19 e5 2b 3f 1e c1 61 3e be fd 9d bd
       -0.1514001 0.6714645 0.22046325 -0.07714413
0000d0 08 b4 5d 3c 05 f8 ef 3c de 70 a1 bd 27 1d a9 bc
       0.013531692 0.02929307 -0.07882856 -0.020643784
0000e0 9a b2 4c bd 49 50 3e bd 37 21 6e 3e 59 fe d3 be
       -0.049975015 -0.046463285 0.23254858 -0.4140499
0000f0 df a5 6f be 31 66 d5 be 4c bc 77 be 78 62 18 be
       -0.23403119 -0.41679528 -0.24192923 -0.14881313
000100 93 68 a2 be c3 3e 8d be 01 e5 16 3e f3 a6 91 be
       -0.3172041 -0.27586946 0.14735796 -0.28447685
000110 08 92 28 bd c4 fc c7 3e ec a8 2c bd df 1e 36 3d
       -0.04115489 0.39060032 -0.042153284 0.044463035
000120 33 55 f2 3c 0e ff cf bd 3e 3b b7 be 41 98 94 be
       0.029581642 -0.1015607 -0.35787386 -0.2902241
000130 dd b5 b5 bd c8 60 4b be 33 fa a8 3d 7e b2 66 3e
       -0.08872578 -0.19861138 0.08250847 0.22529027
000140 42 a3 80 3c 81 76 39 3e 50 1f 1d 3e 20 f3 0d be
       0.015702847 0.18111612 0.15343976 -0.13862276
000150 89 5b ce be 6d d9 d3 3e 99 a8 96 be 69 94 0c be
       -0.4030421 0.4137682 -0.29425505 -0.13728489
000160 62 44 41 3e 78 bd 99 be de dd 26 3e 5f d2 45 be
       0.18873742 -0.30027366 0.16295573 -0.19318531
000170 ff 75 e4 3e b9 da 4f 3e 23 01 2e 3e 04 22 b5 be
       0.44621274 0.2029828 0.16992621 -0.35377514
000180 b7 42 38 be a2 f5 a7 bd f2 43 98 be fc 69 f5 3e
       -0.179942 -0.082011476 -0.29739338 0.47932422
000190 28 c6 c8 be 24 cd db be 3f cf 8f 3d b8 c7 24 bd
       -0.3921368 -0.42929947 0.07021951 -0.04022953
0001a0 ef b1 84 be f4 7d 87 3d 38 27 af 3e b4 cd 80 be
       -0.25917003 0.066158205 0.3420961 -0.2515694
0001b0 15 bb 68 3e 05 86 0e be 8f 00 bc bc 84 51 22 be
       0.22727616 -0.13918312 -0.022949485 -0.15851408
0001c0 8e b4 50 bd 68 0f ea be 74 f4 40 be 93 90 bb bd
       -0.05095344 -0.4571488 -0.18843251 -0.09158435
0001d0 e1 14 4d 3e 55 7b 02 be 5d 59 49 3e 18 9f c3 be
       0.20027496 -0.1274236 0.19662996 -0.38207316
0001e0 e1 e1 ca 3a e7 12 99 bc 39 98 17 3e cf 64 25 be
       0.0015478694 -0.018685771 0.14804162 -0.16151737
0001f0 8c db eb be c9 58 04 bd bb 5b 2f bf 3c b1 7f be
       -0.46065938 -0.032311235 -0.68499345 -0.24969953
000200 2a 95 5b 3b 9b 98 67 be 71 92 70 3e 95 4b 8e bd
       0.0033505657 -0.22616808 0.23493363 -0.0694801
000210 19 08 d6 be 37 f0 7b 3e 98 84 b9 3e 98 ee 25 be
       -0.41803053 0.24603353 0.36233974 -0.16204298
000220 34 9b e4 be ef 5e 8d bd c9 a0 9c 3e 8f f1 86 be
       -0.4464966 -0.06902873 0.3059142 -0.2635617
000230 c2 ad 42 3d 7c 86 a8 3e 6c c6 c8 be 77 02 57 bc
       0.04752899 0.32915103 -0.39213884 -0.013123146
000240 03 27 95 be 40 ee 29 be 60 b2 89 be f5 62 99 be
       -0.29131326 -0.16594791 -0.26893902 -0.2995831
000250 ec a4 8f bd 69 bb 3a bc 36 af 41 3e 85 59 d4 be
       -0.07013878 -0.011397221 0.18914494 -0.41474548
000260 28 95 fe bd b0 75 82 be 04 41 8f 3e e1 99 7a 3e
       -0.12430793 -0.25480413 0.2797929 0.24472763
000270 66 07 b7 be 70 c2 8c bd a3 aa 68 3d 69 25 4e be
       -0.35747832 -0.068730235 0.056803357 -0.20131458
000280 92 44 e1 3e a9 da 3c be 07 82 ad 3e fb 11 82 3d
       0.43997627 -0.18442787 0.33888265 0.06351086
000290 81 ad 4c 3e 3b fd 82 3e db 81 50 be 71 3c 8a 3e
       0.19988061 0.25583825 -0.20362036 0.26999238
0002a0 2c bc c1 be bb a9 a8 3d fe ff cb be 28 f9 d0 3d
       -0.37838876 0.082354985 -0.39843744 0.10203773
0002b0 ab d9 6c be 6e 46 e1 3e 43 e4 26 be f5 82 aa 3e
       -0.23129909 0.43999046 -0.16298012 0.33303037
0002c0 f1 56 92 be 9f f3 93 be d3 49 ed 3e 3f 1e 87 be
       -0.28581956 -0.28896806 0.46345386 -0.26390263
0002d0 67 3d a2 be 8b 40 de be 08 6d 03 3f d2 61 16 3c
       -0.3168747 -0.43408617 0.51338243 0.009178596
0002e0 c4 31 61 be 2b 99 8b 3d a3 b2 a6 3e 96 c8 d8 be
       -0.2199164 0.06816324 0.32558164 -0.42340535
0002f0 be af 92 ba 9b 45 26 3e dd 45 5a 3d 79 ca e3 3c
       -0.0011191291 0.1623749 0.053289283 0.027806507
000300 31 1e d2 bd 41 05 b0 bd a8 a0 5b 3e 6a 04 c6 3e
       -0.10259665 -0.08594752 0.21448004 0.38675243
000310 77 26 cb be f8 17 67 be 60 33 97 be 2b 26 95 bd
       -0.39677784 -0.22567737 -0.29531384 -0.072826706
000320 b9 81 4e 3a d3 cb a0 bd 5a cf cd 3e d3 de 3e bf
       0.00078776065 -0.078513764 0.4019726 -0.7455875
000330 9b a6 b2 be b1 eb fe bd 56 50 fd be 0a d7 83 bd
       -0.34892735 -0.12447298 -0.49475354 -0.064375
000340 ee 5f 86 be 99 2c 42 be 20 9a 8f 3e 3f cb 2e bd
       -0.26245064 -0.18962325 0.28047276 -0.0426743
000350 1d a1 b9 bd 44 fd a4 3e fc ee f9 bd 8e 6f 13 be
       -0.09063933 0.32224476 -0.12203786 -0.14398023
000360 03 aa a9 bd 53 23 b4 be 69 27 b4 bd db 76 5b bd
       -0.0828438 -0.351832 -0.087965794 -0.053580146
000370 b5 97 80 be a1 98 5e 3c b1 27 ae be 6b 89 60 bd
       -0.25115743 0.013586194 -0.34014657 -0.054818552
000380 7e 25 88 bc b8 61 2c 3f e8 5b be be e7 dd df 3d
       -0.01661944 0.67336607 -0.37179494 0.109309964
000390 e1 81 09 bf d5 78 6c be e6 1f 34 bf 16 3b 20 3f
       -0.53713804 -0.23092969 -0.70361173 0.6259016
0003a0 b9 a1 19 bd 83 5a 71 3e 11 0d 5c 3c 29 fb d3 bc
       -0.037507746 0.23569684 0.01343085 -0.025876598
0003b0 b8 30 98 be f6 f7 5f 39 05 f5 c9 3e ac 9f a9 be
       -0.2972467 0.0002135931 0.39444748 -0.33129632
0003c0 ca bf 48 be e9 58 ab be 2b 5c ad 3b 13 26 05 3e
       -0.19604412 -0.3346627 0.0052905283 0.13002805
0003d0 49 e1 c3 3e 98 39 d6 bd b2 1c d3 be 57 61 b3 3c
       0.38257816 -0.10460204 -0.4123283 0.021897001
0003e0 f3 e8 79 be 13 9d e1 3d a1 88 ac bc 04 09 05 be
       -0.2440527 0.11016288 -0.021061243 -0.1299172
0003f0 fd 36 11 3e 03 af e8 bb 1c 46 db 3b 48 5f 16 bf
       0.14181133 -0.007100941 0.0066917073 -0.5873914

layers.1.bias f4 [5]
000000 b4 b6 9c bc 12 09 39 3d 10 b5 1c 3b 49 d0 6d bb
       -0.019130088 0.045174666 0.0023911633 -0.0036287478
000010 a2 4a 69 bc
       -0.014238985
