model_weights/logreg_model_Coa_cs.pth (torch, 542567 bytes, 4 tensors)

layers.0.weight f4 [256, 512]
00000000: 5b3b 5abd fc06 6f3d 9dd5 933c f8ef 37bd
00000010: 92cf 9abb 70b1 04bd 043c 0d3d fd09 1b3b
00000020: 0512 d6bc 637b 66bd 6b8b a8bd c063 bebc
00000030: 3f5c 8bbd 4723 53bd 72f6 2a3d 63f5 6abc
00000040: 5eec d93c d71d 483d 7ad3 4f3c bca2 4dbc
00000050: 27c9 f03d 3ae4 4c3d 5b07 d23c a347 083c
00000060: 737d 3bbd 91bd a4bd 2fa5 cdba ea67 df3c
00000070: 75ce f9bc 3b54 323c fe3c 50bd 0050 123d
00000080: 70b2 81bc 8ab7 28bd 9e14 883c b22c adba
00000090: 9682 223d 985c 493c af10 24bd 4a55 663d
000000a0: d61f c23c e520 85bd 540c 26bc c56a a23c
000000b0: 4254 6e3c fda0 103c 5eb7 863c 50b9 a13c
000000c0: 0a02 4d3d 94a5 31bc 27e1 13bd b5b8 df3b
000000d0: 7ba5 bd3d 8e1b fdbc 55bc 483d cfe1 acbc
000000e0: b762 183c afc8 7fbc c21f 5cbd 102f 783c
000000f0: 7bae c73b 282c f13c d4d4 403b b026 9fbc
00000100: 6ba1 85bd c3a2 80bd ba9a 6e3b 7533 1dbb
00000110: b510 a03d b710 6cbd ea9d e6bc aaaa 22bd
00000120: 6ada 1bbd c906 e83c b569 37bd ef39 ff3c
00000130: c832 febc f6ac d5bc b65d c53c aedc 77bc
00000140: 47d4 8c3b 83df 453d a00d 873c 6efb 093e
00000150: c78f 473d ab7e e03c b1e5 bebd 5383 513c
00000160: b5d4 9b3d 7e92 f4bc 276a 143d 37c2 babc
00000170: a5aa ffbc b9e6 44bc f0a3 e23b a5f2 2c3d
00000180: afbf 58bc 46d3 10bd a17f 8e3c e197 743d
00000190: be88 4dbc d92a 6d3c ccc0 093e a7f5 fc3c
000001a0: db9c b13c 4e69 163d 82b4 973d 895e 9cbc
000001b0: 06f4 523c 3735 00bd 7b17 c5bc ab62 12bd
000001c0: 966c e2bc 8b90 533d 351d 503c 65f7 f4bc
000001d0: 5465 b63c 5fb0 cb3c d284 a23d dc9b 70bd
000001e0: 520c 6bbb 00af b73c 2108 593d 1016 243d
000001f0: 62b3 633c f25d c43d cb69 0fbd 7670 01bd
00000200: ad32 413d 2981 30bd 0868 5e3d 7b90 fd3c
00000210: f370 623c 459d b23c dcfe 8cbc 9e29 51bd
00000220: e234 e6bc 4d82 bfbc d1d4 df3c 1185 5dbd
00000230: bdcb 46bd 644d 973d 6946 11bd be66 353d
00000240: 642e d9bc 83f5 31bd d7ab b5b9 4f96 2dbd
00000250: 5d07 4dbd 5a01 483c a3b0 b33b 5264 ad3d
00000260: 126b 0fbc 39a5 48bd 107c 73bd f3a9 4f3d
00000270: 149f 093c eab2 72bc 919e 3c3d 78c1 1a3d
00000280: 0769 a7bc 29d6 87bd c84e 7d3d 9756 aeba
00000290: 5a0e b4bd bb0e 9c3b bfbe 4a3d eb71 1f3c
000002a0: eab5 093d 7cac 29bc 23b1 84bd fd60 f4bc
000002b0: 502c 1b3d 831b 753d eea6 2a3d 9b65 8ebc
000002c0: 9bd0 b6bb a169 6e3c 4aa1 81bd f8b2 96bc
000002d0: 36a4 1c3d 5f26 adbc 25d0 35bc 63bc 73bd
000002e0: c644 e7bc 5713 a53c 7466 f2bd adb0 32bd
000002f0: 38c3 353c 4d63 9ebc 3c43 733c 0de8 893d
00000300: d4d8 4a3c 79c2 2ebd 918f 95bc eb85 c33d
00000310: e274 93bd 1178 1c3c 9eb6 353d 902e 923c
00000320: 380f 3fbd 4da6 c0bc 2cd1 45bd d218 15bd
00000330: 0d76 2cbd 875e 83bd eda2 89bc e177 17bd
00000340: 0890 be3c 3d38 043d 55d0 0e3d 70d1 ee3d
00000350: ad8c 24bd cca1 3f3d 82c9 32bd cb1c 8ebd
00000360: c11c 41bc 8b7f 1dbd 2829 a23c df02 96bd
00000370: 9b6c 783d 8cea 09bc 1632 1f3d e22c 3b3c
00000380: c2c2 96bc b764 7b3d 60bb 7abd 47e5 893d
00000390: 2f7d 8c3c e463 acbc cd32 4d3d 3d37 c43d
000003a0: cab1 ba3c b2b0 083d ce9f 9e3c 35aa 23bd
000003b0: 71d6 f83b b1bf 733c cdd9 03bd b4c0 763d
000003c0: 7395 eb3c 10b8 88bc 46c5 cd3c e579 b1bc
000003d0: 786b 323d 3775 063c ade6 6dbd e87a 713d
000003e0: cd4b 703a 5239 08bb 8d56 9fbd d7c9 6f3d
000003f0: 1634 0b3c bdff 053c 3ada ab3b a30f 5bbb
-0.053279262 0.05835627 0.018046195 -0.044906586 -0.0047244513 -0.03239578 0.034481063 0.0023657077
-0.02613164 -0.056270014 -0.08229717 -0.023240924 -0.06804704 -0.051547315 0.041738935 -0.014340731
0.026601966 0.048856582 0.012684697 -0.012551006 0.11757117 0.05002234 0.025638273 0.008317861
-0.045773935 -0.080439694 -0.0015689487 0.02727123 -0.030493954 0.01088434 -0.050839417 0.035720825
-0.015832156 -0.04119066 0.016611394 -0.0013212173 0.039675318 0.0122901425 -0.040054973 0.05623368
0.023696821 -0.06500415 -0.010134775 0.019826302 0.014546456 0.008827445 0.016444858 0.019741684
0.050050773 -0.0108427 -0.036103394 0.0068274387 0.092600785 -0.030896928 0.049007732 -0.021103768
0.009300879 -0.015611812 -0.053741224 0.015147939 0.0060937977 0.02944 0.002942373 -0.019427627
-0.06524929 -0.06281044 0.0036408142 -0.002398697 0.078156866 -0.057633128 -0.028151471 -0.03971354
-0.038050093 0.028323548 -0.044778544 0.031155555 -0.031030074 -0.02608345 0.024092536 -0.015128298
0.0042977664 0.04830886 0.01648599 0.13474819 0.0487211 0.02740415 -0.09321154 0.012787658
0.0760893 -0.02985501 0.036234047 -0.022797687 -0.0312093 -0.012017899 0.0069165155 0.04222359
-0.013229295 -0.035357736 0.017394843 0.059715156 -0.012544809 0.014475548 0.13452452 0.030878855
0.02168124 0.03672152 0.07407476 -0.019088047 0.0128755625 -0.03130075 -0.024059048 -0.03573863
-0.027639668 0.05165152 0.012702276 -0.029903123 0.022265114 0.024864374 0.0793549 -0.05874239
-0.0035865498 0.022422314 0.052986268 0.040060103 0.013897749 0.09588231 -0.035013 -0.03160139
0.04716747 -0.043091927 0.05429843 0.030952683 0.0138208745 0.021803508 -0.01721137 -0.05106508
-0.028101388 -0.023377562 0.027323158 -0.05408198 -0.048534144 0.07387808 -0.03546754 0.044287436
-0.026511379 -0.04344703 -0.0003465104 -0.042379674 -0.05005585 0.0122073535 0.005483703 0.084664
-0.008753555 -0.048985694 -0.059444487 0.050699186 0.008399744 -0.014813164 0.04604966 0.037782162
-0.020435823 -0.06632645 0.06184271 -0.0013300952 -0.087918 0.004762498 0.049498316 0.00973175
0.033620752 -0.010356065 -0.06479099 -0.029831404 0.037884057 0.05984069 0.041663103 -0.017382434
-0.005579067 0.014551551 -0.063295916 -0.018395886 0.03824254 -0.02113646 -0.011096989 -0.05950583
-0.028231036 0.020150824 -0.11835948 -0.043625522 0.011093907 -0.01933446 0.014847573 0.06733713
0.012380797 -0.042665932 -0.018256934 0.09547027 -0.07200028 0.00955011 0.04436361 0.017844468
-0.046645373 -0.023516798 -0.048295185 -0.036400624 -0.04210477 -0.06414514 -0.016801322 -0.03697956
0.023262039 0.032280196 0.03486665 0.11661041 -0.04017322 0.04678516 -0.043649204 -0.069390856
-0.011786641 -0.038451713 0.019795015 -0.07324766 0.06065045 -0.008417737 0.038866125 0.011424275
-0.018403415 0.061375346 -0.06121385 0.06733184 0.017149536 -0.021043725 0.050097276 0.09580848
0.022789855 0.033371635 0.01936331 -0.039957244 0.007593923 0.014877246 -0.032190133 0.06024237
0.028757786 -0.01668933 0.025118481 -0.02166457 0.04355952 0.008206657 -0.058081318 0.058955103
0.00091665686 -0.0020786119 -0.0778018 0.0585421 0.008496305 0.008178649 0.0052445205 -0.0033426068

layers.0.bias f4 [256]
00000000: ee80 a1bc 3ac9 6fbd 293a cebc 7fff fbbc
00000010: 583c 5f3b baeb 61bd 2d6b 7fbd c0f7 243b
00000020: 83eb e5bc 6e28 8abb da2a 4bbd 33e0 84b9
00000030: 94bc 4a3c 61af 3b3c fc04 fabc d786 b8bc
00000040: 7382 20bd e464 6bbd cd97 10bd 155a edbb
00000050: bb95 653d 57ca 0abd 61f1 c23a 7b7f e03b
00000060: 081f 28bc dc44 123c 15df 7dbc f8a8 a93b
00000070: 58ef a93b 5d23 86bc 8d69 f2bc 8e8d 34bd
00000080: 2e51 17bd c216 08bd 2c97 b43b 7cc1 bf3c
00000090: 5c0a 123c 6861 35bd 351c 41bd 877a 77bc
000000a0: 3581 fa3c 8166 80bc 94ba e53a a697 91bd
000000b0: f8d4 1cbc f10c 08bc 3b69 45bc c3b3 d4ba
000000c0: 87ab c23c 0c81 a2bc e5dd 14bd 3130 3d39
000000d0: 3080 6dbc cc28 e9bc d941 23bc b354 b53c
000000e0: a12e ecbc 11b6 c43b 5dea 4c3d f197 54bd
000000f0: 7c27 e83c a84f 17bc 175d 59bd da18 b0bc
00000100: 2331 093d be3a cabc 74a1 a93c eef5 91bc
00000110: dc06 00bd d6ca 29bd 1d38 663d c89f a33b
00000120: efc2 0ebd 1788 9abd 2296 69bc 0926 e1bb
00000130: 5204 34bc a8c1 b1bd b2c5 d6bc 836f 86bb
00000140: f571 bd3b bca3 023c b280 debc e2f3 e0bc
00000150: a091 d0bc 9c79 0bbc dbd5 4c3c 82cc 91bc
00000160: 13de 62bb 811e a73d ee6d 56bd d273 23bd
00000170: 91d9 abbc 7f6b 9dbc f358 82bc bf72 78bd
00000180: 5b86 0cbd bdcc 473c c4ed 98bd 51f4 903c
00000190: dc9e d53c 574c 3a3d c3c7 4fbd 3739 50bc
000001a0: 9d52 143d 20a8 cc3b 7734 0a3d fb5c 60bd
000001b0: 6478 88bc 73b6 92bc bb13 c53c 93f5 1a3a
000001c0: 92de 20bc ca86 cb3a 9dda eb3d 2111 c8bb
000001d0: 7486 24bd 8cb4 4dbc b191 153c 28bd a33a
000001e0: ca30 20bd 3cd9 413c 2815 62bd fac1 e33c
000001f0: cf7b d1bd 0216 70bd b9cc 09bc 2b82 953c
00000200: 82ef b9bc 0f3d 333c 5b2d 173b d009 a83c
00000210: 03bf ddbc b2fe 0b3c badf 57bb af07 82bd
00000220: 5f39 84bc d841 51ba e445 2bbd 14df c63b
00000230: b212 13bd f424 22bd 810a b03b a72c 723d
00000240: d6c8 ffbc c4e5 99bb ba29 c5bb ff1a 823b
00000250: 086f 89bc 377c 193a d091 4ebd 0f45 cbbc
00000260: 6785 32bd c4a2 903c df42 003c ec90 21bd
00000270: f8f6 433d 3cbf 01bb 8db6 a43b c2db a2bc
00000280: 6036 12bc dffd d03c 5b62 08bc fd90 9fbd
00000290: 95bc 16bc 932d 8e3c 7065 5b3b 1ee9 9fbc
000002a0: ade3 623c 7ea0 e1b4 1e38 c83c 6398 a3bb
000002b0: 9fa0 d13c cb31 913c 8760 393b 4a90 67bd
000002c0: 10f5 58bd d476 bebc 9041 14bb 3297 f03c
000002d0: 8ed6 453d e854 453c 2bb6 973c 00d2 7ebc
000002e0: 7cbc 133d 3d25 19bd 500f 54bd 7768 353b
000002f0: 3153 0abd eef3 fa3c a854 b8bc 64bc 80bd
00000300: 1fd7 64bd e70f 933c 0928 55bd 7afc 453c
00000310: c751 23bc cdec bcbc 8a86 2bbd 017a 22bd
00000320: a0a8 16bd af05 0f3d 2b16 be3c ca58 083c
00000330: 80b7 a3bc 28f7 87bd babb 54bd 6de5 6bbd
00000340: 32f7 ba3c d659 ccbd dec0 b1bb 4ac7 5abd
00000350: ead9 f4b9 262e a3bc 21e7 923d 87c7 51bd
00000360: dcbc 94bc 7115 a73c e5f0 e13c d315 01bc
00000370: 00f7 89bd bd94 82bd 83db 86bd a7be a6bd
00000380: 40f3 39bd 0e13 7cbd 53a7 febb 48d9 31bd
00000390: 7347 5cbd f488 e1bc 8eec 0ebd d9ac 3fbd
000003a0: b73c 90bc 5663 58bc 34ce acbd 3799 f4bb
000003b0: 89ee b2bd 0652 25bb f496 f03c c1b4 a8bc
000003c0: f50b 32bd 8b58 c43b c8e5 443c 33e6 afbc
000003d0: 49df 8ebc b1c4 333d 3c3d 74bd b976 5ebd
000003e0: c87a 183d 602a 0bbc b591 44bd 00ad 65bd
000003f0: a3a2 8fbc 9313 d13c 61b8 123d 3d28 8bbd
-0.019714799 -0.058541514 -0.025174217 -0.030761478 0.0034063067 -0.055156447 -0.06235807 0.0025172085
-0.028066402 -0.0042162454 -0.049601413 -0.00025344043 0.012374062 0.011455388 -0.030519955 -0.022525234
-0.039186906 -0.057469264 -0.03530102 -0.0072434046 0.056050997 -0.033884373 0.0014872962 0.0068511344
-0.010261305 0.00892755 -0.015495081 0.0051776133 0.0051860027 -0.016374284 -0.029591346 -0.04408031
-0.036942653 -0.03322483 0.005511185 0.02340769 0.008913603 -0.044282347 -0.04714604 -0.015104896
0.030579189 -0.015673878 0.0017526918 -0.07109003 -0.00957226 -0.008303867 -0.012049015 -0.001622789
0.023763431 -0.019836925 -0.036344428 0.00018042397 -0.014495894 -0.028461836 -0.00996443 0.022135114
-0.028830828 0.0060031493 0.050028194 -0.051902715 0.02833914 -0.0092353 -0.053067293 -0.021496225
0.033494126 -0.024686214 0.02070687 -0.017817464 -0.03125654 -0.041453205 0.056205858 0.0049934126
-0.034853872 -0.07545488 -0.014256986 -0.006870989 -0.010987358 -0.08679515 -0.026217315 -0.0041026487
0.005781407 0.007973608 -0.027160976 -0.027460042 -0.025460064 -0.008512881 0.012502159 -0.017797712
-0.003461723 0.08160115 -0.05235093 -0.039905377 -0.020977767 -0.019216297 -0.015911555 -0.060656305
-0.03430782 0.0121948095 -0.07467225 0.017694624 0.026076727 0.04548296 -0.050727617 -0.012708954
0.0362116 0.006245628 0.03374144 -0.054776173 -0.01665897 -0.017909264 0.02405726 0.0005911227
-0.00981869 0.0015527841 0.115163065 -0.0061055575 -0.040167287 -0.012555253 0.009128974 0.0012492286
-0.03910903 0.011831578 -0.055195957 0.027802456 -0.10228693 -0.05861474 -0.008410626 0.018250545
-0.022697214 0.0109398505 0.0023067805 0.020512491 -0.02706862 0.008544611 -0.0032939748 -0.06349122
-0.016140638 -0.0007982529 -0.0418147 0.0060690735 -0.0359065 -0.039586022 0.005372346 0.059124615
-0.031223696 -0.0046965797 -0.006016937 0.0039705033 -0.016776577 0.0005854996 -0.050432026 -0.024813203
-0.043584254 0.017655738 0.007828443 -0.03944485 0.04784295 -0.0019797822 0.0050266446 -0.01988018
-0.008924097 0.02551168 -0.008324231 -0.07791326 -0.009200235 0.017355716 0.003347721 -0.019520339
0.013848227 -4.202629e-07 0.024440821 -0.004992531 0.025589285 0.017723938 0.0028286295 -0.05653409
-0.052968085 -0.023250021 -0.0022622086 0.02936897 0.04830032 0.012044169 0.018519482 -0.015552998
0.036068425 -0.03738903 -0.051772416 0.0027680674 -0.033770744 0.030633893 -0.022501305 -0.06285933
-0.055869218 0.017951919 -0.052040134 0.012084121 -0.009968228 -0.023062134 -0.041876353 -0.039667133
-0.036781907 0.03491753 0.02320393 0.00832195 -0.01998496 -0.06638938 -0.051936843 -0.057591844
0.02282295 -0.09978072 -0.005424603 -0.053412713 -0.00046701665 -0.019919466 0.071729906 -0.051215675
-0.018156461 0.020395966 0.027580688 -0.007878738 -0.06736565 -0.06376026 -0.06584837 -0.08141833
-0.045397997 -0.06154161 -0.0077714114 -0.043420106 -0.053779077 -0.027531125 -0.034893565 -0.0467957
-0.017607076 -0.013207277 -0.084377676 -0.0074645537 -0.08736903 -0.0025225892 0.029368855 -0.020594003
-0.043468434 0.0059920005 0.012017675 -0.021472072 -0.017440455 0.04388875 -0.05962871 -0.05431244
0.03722647 -0.00849399 -0.04799052 -0.05607319 -0.017533606 0.025522029 0.03582037 -0.06794784

layers.1.weight f4 [15, 256]
00000000: 17cf 06bd c759 2a3e 2aa1 3abe 92e4 f43d
00000010: 2e30 85be 73ca 4abe 0148 49be 76e2 8ebe
00000020: a826 6dbe bb56 7bbe 455e 3c3e 5c7d 643e
00000030: a132 38be 9ff4 153d be5d 8cbe 2a91 233c
00000040: c65e 8dbe 302c 8abd aae8 113e 66f9 7fbe
00000050: 1861 4dbe 88aa 3cbe 94f2 753b ed37 8cbe
00000060: a541 4bbe ea43 91be 85e6 94be 40ab 463e
00000070: c494 8c3e 1aca af3d 9824 c63c 5726 513c
00000080: 8d47 6dbd 0bd1 adbe 18fa 60bd aab9 363e
00000090: 978f 4ebe c4eb 80be 3d04 603e c497 553d
000000a0: 9c36 9cbe 431e 5f3e 8b99 7bbe 8318 113e
000000b0: 77fc 8abe 0600 273e c02a 87be c701 0ebe
000000c0: f09e 853e 3365 52bd c215 b5ba bf6e 0dbe
000000d0: b3d4 b1bc 2941 7fbe a421 113e 52f8 20be
000000e0: d988 0fbe ad48 703e cead 203d 4236 ac3d
000000f0: bd82 143e 555e ed3d c1a5 063e f1f7 103e
00000100: 2c0c 993d 1308 d93d 942e 84be dab0 593d
00000110: 608a adbe bcee bc3c 43c1 1ebe ddd0 5ebe
00000120: e218 98be 35d7 8d3d cbb6 47be 5cf1 7f3c
00000130: c2f7 8abe 3d9d a2be e064 e4bc 24e2 6a3d
00000140: 21aa 3dbe 4e81 ee3d b80a 733e 0f98 6f3c
00000150: 864a eb3c c1ea 523e 736c 4fbe 6dee 04be
00000160: b302 873d 4321 64be 530e fb3d 0a8d 76be
00000170: e616 353e 6d2c f13d da70 7cbe 1f7f 66be
00000180: 1efd af3d dfdd 6ebe ba71 2bbe c170 573e
00000190: 6e28 83be 4a93 f2bd 7a1f 80be f6e7 273e
000001a0: 957e 1bbe 4124 13bd 5643 463e 386a f73c
000001b0: 6f1f 66be 1543 033c 83c4 77be 826e 48be
000001c0: 8d10 273e 6b97 a7be 0682 46be 688c 403c
000001d0: 5ff0 cc3c d087 7cbe cfed a03d 7028 1c3e
000001e0: e574 a23d e99f f5bd 30c7 733e c762 7dbe
000001f0: 4103 ae3c c04b 13be 0aa6 f7bd f0cf 8abe
00000200: 9a51 c3bb d270 683e fa0e 32be 43ed 27be
00000210: ba9d 2fbe e897 d1bd 6e96 473e ba77 a13d
00000220: 3b84 9ebe 2a9f 52be 3219 14be fd79 5fbd
00000230: d0e9 45be d34d cb3d a25d 92be ea2a 28be
00000240: b303 a3be 56a4 1cbd 2362 3bbe 4d04 d33d
00000250: 3127 cc3d 7448 1ebe 6137 1fbe f5c7 15be
00000260: 9cf9 473d d3e6 bbbe 8413 993e 5336 cb3c
00000270: 28b9 dcbd 2986 e3bd c432 12be 3fd6 203e
00000280: 2a53 333e 1b85 5bbe 7fac ddbd 830d 333e
00000290: 534a fa3d 7ec1 24be dff9 85bc b1c8 28be
000002a0: efbe 75be e349 39be c746 4abe ebb2 43be
000002b0: 9b7a 27be 5859 23be 0faa 523e 57d6 023e
000002c0: 1381 9fbe 37b7 63be 3ced d3be ecbf 77be
000002d0: cc0e 4ebe ed53 f83d 5aa9 6bbe 8684 3dbe
000002e0: 814b 37be ac61 56be 4832 5a3d 5c27 33be
000002f0: 9e46 563e a02b 17be a9ad 943d 70b2 5c3e
00000300: 1513 973c 09fa 67be 38dc be3c 1dc2 53be
00000310: 5423 aabe 1341 5ebe 34f3 be3a 12b9 dc3d
00000320: aeaa f13d a296 4d3e 96ea e3bc 4d75 eebd
00000330: 644f 41bd e22c 0fbe e40e debd fc04 3ebe
00000340: 5cb3 34be 7323 fa3d d606 483e b428 6bbe
00000350: 9842 ee3d a33c bc3d ac54 4bbd b8ee 6d3e
00000360: b4ac 8ebe e054 ab3d f32c a7be f0aa 8a3e
00000370: 6aed c5bc bbc3 243e f760 98be 9b30 613e
00000380: 1fde 10bc 525d 813e 1c61 983d df6e b73c
00000390: 34ce bd3d 0f0f 953d 0af6 463e d7dc 58be
000003a0: 5b42 363e 4a54 03be f910 f0bc e496 953d
000003b0: 2c22 bcbe 9b75 57be 5bb7 17be 7104 73be
000003c0: 9138 e33d 156f 4f3e d4ee 4c3e dca8 ffbd
000003d0: 7609 51be 8665 1bbe 4dc3 863e 94c4 d53d
000003e0: 1c65 16be 834a 5ebe e959 47be c4bb 85be
000003f0: b169 9b3e 097a 863d d75a 923c 7a8c 8cbe
-0.03291234 0.1663581 -0.18225542 0.11957659 -0.2601332 -0.19803791 -0.19656374 -0.2790715
-0.23159277 -0.24544804 0.18395336 0.22313446 -0.17988063 0.036610242 -0.2741527 0.00998334
-0.2761137 -0.06746709 0.1424891 -0.24997482 -0.2005657 -0.18424428 0.003752862 -0.27386418
-0.1984926 -0.28372127 -0.29082122 0.19401264 0.2745725 0.0858347 0.024187371 0.012765489
-0.057929564 -0.3394855 -0.054926008 0.17844263 -0.20171963 -0.25179875 0.21876617 0.052146688
-0.30510414 0.21788888 -0.2457029 0.14169507 -0.2714574 0.16308603 -0.26399803 -0.13867866
0.26097822 -0.051366042 -0.0013815688 -0.13811778 -0.021707868 -0.249272 0.14172989 -0.15719727
-0.14017047 0.23465224 0.039228253 0.08408786 0.14502998 0.11590258 0.13149168 0.14157082
0.07473025 0.10597243 -0.25816786 0.053147174 -0.33894634 0.023063056 -0.15503411 -0.21759363
-0.29706484 0.06925813 -0.19503324 0.015621509 -0.2714215 -0.31760588 -0.027880132 0.05734457
-0.1852193 0.11645757 0.23734558 0.014623656 0.028722059 0.20597364 -0.20256214 -0.12981577
0.06592312 -0.22278313 0.122585915 -0.2407724 0.17684516 0.11776052 -0.24652424 -0.2250943
0.085932 -0.23326825 -0.16742602 0.21039106 -0.25616783 -0.118444994 -0.25024015 0.1639708
-0.15185006 -0.035923246 0.19361624 0.030202016 -0.22472928 0.008011599 -0.24196057 -0.19573405
0.16314907 -0.3273271 -0.19385538 0.011752225 0.025016962 -0.24661183 0.078578584 0.152498
0.07932452 -0.11993391 0.23806453 -0.24744712 0.021241786 -0.14384365 -0.12092216 -0.2711177
-0.0059606554 0.22699288 -0.17388526 -0.16399102 -0.17150012 -0.10234052 0.19490978 0.07884164
-0.3096026 -0.20568529 -0.14462736 -0.054559696 -0.19327474 0.09926953 -0.2858706 -0.1642262
-0.3183876 -0.03824266 -0.18299155 0.10303555 0.09968413 -0.15457326 -0.15548469 -0.14627059
0.04882203 -0.36699542 0.29897702 0.024806177 -0.10777503 -0.111095734 -0.14277178 0.15706728
0.17512193 -0.21437494 -0.10823917 0.17485623 0.122212075 -0.16089436 -0.0163545 -0.16482808
-0.23998617 -0.18094592 -0.19753562 -0.1911122 -0.16355364 -0.1595205 0.20572685 0.12777077
-0.31153163 -0.2223786 -0.41391933 -0.24194306 -0.20122832 0.121253826 -0.23013821 -0.18507585
-0.17899896 -0.20935696 0.05327061 -0.17495483 0.20925376 -0.14762735 0.072596855 0.21552444
0.018441716 -0.22653975 0.023298368 -0.20679517 -0.33230078 -0.21704511 0.001456833 0.10777487
0.11800133 0.20076993 -0.02782182 -0.11643467 -0.047194853 -0.13981965 -0.10842684 -0.18556589
-0.17646545 0.12213793 0.19533858 -0.22964746 0.116337955 0.09191253 -0.049641296 0.23235595
-0.27866137 0.08365798 -0.3265148 0.2708354 -0.02416106 0.1609029 -0.29761478 0.21991198
-0.00884202 0.2526651 0.07440397 0.022391735 0.09267846 0.07278263 0.19429794 -0.21177994
0.1779875 -0.12825122 -0.029304968 0.07304171 -0.3674482 -0.21040957 -0.14816038 -0.23732163
0.110947736 0.20257218 0.2001298 -0.12483379 -0.20413765 -0.15175447 0.26320878 0.10437885
-0.14687008 -0.21708111 -0.19467892 -0.26119816 0.30354074 0.06566245 0.017865581 -0.27450925

layers.1.bias f4 [15]
00000000: 849b b1bb 3085 b93c 35de 9d3c d84d ae3c
00000010: ab9b 473c 6fe5 303a 7d99 833c a419 293b
00000020: 34bb c03c 0270 0ebe 0f2c 2a3c 156d e13b
00000030: ee9f 86bc d653 81ba 62d5 153c
-0.0054201502 0.022646517 0.019270996 0.021277353 0.01218311 0.00067480555 0.0160644 0.0025802637
0.023526765 -0.13909915 0.010386481 0.0068794587 -0.016433682 -0.0009866904 0.009145113
