model_weights/logreg_model_Azn_ph.pth (torch, 535335 bytes, 4 tensors)

layers.0.weight f4 [256, 512]
0	0xbc9f16c9	-0.019420044
1	0x3d12f658	0.035879463
2	0x3d68ee60	0.056867957
3	0x3ba16857	0.0049257684
4	0x3dbac6b9	0.091199346
5	0x3d44c608	0.04804042
6	0xbcf896c8	-0.030345336
7	0x3df75758	0.120772064
8	0xbb4a0f54	-0.003083189
9	0x3c129ec5	0.008948986
10	0x3cf30c89	0.029669063
11	0x3d5e8887	0.05432942
12	0x3a2189ad	0.0006162178
13	0xbc508f50	-0.012729481
14	0x3d02bd65	0.031918902
15	0x3caddd88	0.021223798
16	0x3c935d62	0.017988864
17	0x3dd5f0a7	0.104462914
18	0xbdba8084	-0.09106544
19	0xbc9a9b98	-0.018873021
20	0xbd080898	-0.03321132
21	0xbde8b2b6	-0.113622114
22	0x3c8803f5	0.01660345
23	0x3cb0327f	0.021508453
24	0x3cbe1e01	0.023207666
25	0xbc7052ee	-0.0146682095
26	0x3d1d732e	0.038439922
27	0x3d7eae51	0.06217796
28	0x3d325be3	0.04354466
29	0x3cc6965b	0.024241617
30	0x3d072643	0.032995474
31	0x3cc955db	0.024577072
32	0xbc4d9d92	-0.012549775
33	0x3cb9e096	0.022690099
34	0xbc1853f9	-0.009297364
35	0xbd4d862f	-0.050176796
36	0xbdf3732e	-0.11887203
37	0xbd9497a4	-0.07255486
38	0x3dd6e2b8	0.10492462
39	0x3d802d08	0.06258589
40	0x3cfcee3f	0.030875323
41	0x3ce29842	0.027660493
42	0x3cb27881	0.021785976
43	0x3d373c98	0.04473552
44	0xbd948d6a	-0.07253535
45	0x3c160999	0.009157562
46	0xbd5fdb33	-0.054652404
47	0xbc793fec	-0.015212994
48	0x3b89cc46	0.0042052595
49	0x3d146268	0.03622666
50	0xbcbb4798	-0.022861287
51	0x3c0e0abd	0.008669552
52	0xbd27e689	-0.04099134
53	0x3cab0531	0.020876499
54	0x3d097745	0.03356101
55	0x3d947359	0.07248563
56	0x3dc515cb	0.09623297
57	0x3c293939	0.010328584
58	0xbe011dd2	-0.12609032
59	0xbd8854b9	-0.066567846
60	0x3ce17147	0.027519835
61	0x3bd2205a	0.006412548
62	0xbd2d9161	-0.042374972
63	0xbcd604db	-0.026125362
64	0x3c3b37a7	0.011426843
65	0xbd862bae	-0.065513
66	0x3d763efd	0.060118664
67	0x3d921892	0.07133593
68	0xbc034fbd	-0.008014617
69	0x3d6c77e2	0.057731517
70	0xbb97d23d	-0.0046332167
71	0x3cad44b1	0.021150919
72	0x3cc93c8f	0.02456501
73	0x3c3d743c	0.011563357
74	0xbd26baf8	-0.04070565
75	0x3c29a72e	0.0103548
76	0x3bc92350	0.006138243
77	0x3c55b2fb	0.013043161
78	0xbd55efda	-0.052230693
79	0x392471c1	0.00015682635
80	0xbcd04054	-0.025421299
81	0xbd9fd55d	-0.07804368
82	0xbc6948ad	-0.014238519
83	0xbc34fa4b	-0.011046003
84	0x3bb0e7b2	0.005398714
85	0xbcaafdb6	-0.020872932
86	0xbd1fb848	-0.038994104
87	0x3cf0ce9e	0.029395398
88	0xbd76ae39	-0.060224745
89	0xbd7e1a79	-0.062036965
90	0x3c9e432d	0.019319141
91	0x3c610279	0.0137335
92	0xbcd5c211	-0.026093515
93	0xbcaf8731	-0.021426769
94	0x3b94a685	0.0045364522
95	0x3bfbf296	0.0076888306
96	0xbcf72275	-0.030167798
97	0x3d6e3cd8	0.058163494
98	0xbdb22a21	-0.08699442
99	0x3ce1d6da	0.02756827
100	0xbd174762	-0.03693331
101	0x3d32fec1	0.043699984
102	0x3cc82b77	0.024434788
103	0x3c91b9dc	0.01778882
104	0x3cb3252d	0.021868313
105	0x3d99e264	0.07513884
106	0x3d475821	0.04866803
107	0xbd2fe827	-0.042946007
108	0xbc6a496e	-0.014299734
109	0x3d716d98	0.058942407
110	0x3c49a68b	0.012307773
111	0xbd327560	-0.04356897
112	0xbd82332c	-0.063574165
113	0x3c5ef739	0.013608747
114	0x3cceb148	0.025231019
115	0xbdb3d669	-0.0878113
116	0xbcc808ee	-0.02441832
117	0x3c2eb657	0.01066359
118	0x3d0d4301	0.034487728
119	0xbcdec7ea	-0.027194936
120	0xbd6e4292	-0.058168955
121	0x3d9794e0	0.074014425
122	0x3ded2484	0.115792304
123	0x3ce4256f	0.027849881
124	0x3d2b8e72	0.041883893
125	0x3d711f64	0.058867827
126	0xbd2007c7	-0.039069917
127	0x3da2b56f	0.07944762
128	0x3d42ad52	0.047528572
129	0xbc9fb602	-0.019495968
130	0x3db504a4	0.08838776
131	0x3d806060	0.06268382
132	0xbd81455a	-0.06312056
133	0xbafd720c	-0.0019336357
134	0xbc96d11e	-0.018410262
135	0xbcbb7b41	-0.02288592
136	0x3d8be3d3	0.068305634
137	0xbc5ecdb7	-0.013598851
138	0x3c3b9268	0.01144848
139	0x3c9a9ad9	0.018872665
140	0xbd391727	-0.045188095
141	0x3bb9b3c2	0.0056671808
142	0xbbe2ed7f	-0.0069252844
143	0xbccfd56b	-0.02537032
144	0xbd278dfc	-0.04090689
145	0x3d2c4bbc	0.042064413
146	0xbd574a54	-0.05256112
147	0x3d055213	0.032548975
148	0x3da3b120	0.07992768
149	0x3d8d3dfb	0.068965875
150	0x3c099881	0.008398176
151	0xbd3416e8	-0.043967158
152	0x3d32dae3	0.043665778
153	0xbd13799b	-0.036004644
154	0x3d4077fa	0.04698942
155	0x3c87ad74	0.016562201
156	0x3bbeaa3f	0.0058186348
157	0xbb7754ac	-0.0037739677
158	0xbd1aa758	-0.037757248
159	0x3b41ff7c	0.0029601743
160	0xbb922482	-0.0044599185
161	0x3bbe1494	0.005800793
162	0xbcf16cdc	-0.029470854
163	0x3df841e1	0.121219404
164	0x3d362bc5	0.044475336
165	0x3ca0e32a	0.01963957
166	0xbcd9c240	-0.026581883
167	0xbbeb5aa6	-0.007182437
168	0xbc88b095	-0.016685763
169	0xbcaf266b	-0.021380624
170	0xbcb4fb90	-0.02209261
171	0xbd800d77	-0.06252568
172	0x3da4f7ea	0.08055098
173	0xbdaab454	-0.08335176
174	0xbcc2b533	-0.023768043
175	0xbd83339a	-0.064063266
176	0x3c8e7109	0.017387884
177	0x3c982a75	0.018574933
178	0x3dc6e7b1	0.097121604
179	0x3bfde94b	0.007748758
180	0xbb4f1b2e	-0.0031601894
181	0xbdc5e341	-0.09662486
182	0x3dd0507e	0.10171603
183	0x3d19e17e	0.03756856
184	0xbad7466c	-0.0016424186
185	0xbd14e7f0	-0.036354005
186	0x3db4a594	0.08820644
187	0x3deec965	0.11659507
188	0x3bde7017	0.0067882645
189	0xbda11301	-0.07864953
190	0xbddccf94	-0.1078178
191	0x3c9d285b	0.019184282
192	0xbbddce61	-0.006768987
193	0xbd2e0020	-0.042480588
194	0xbd826b5a	-0.06368132
195	0xbc6f7f9d	-0.014617828
196	0x3cc36312	0.023850951
197	0xbca339b5	-0.019924978
198	0x3d3ba69e	0.045813195
199	0xbc1faf1f	-0.009746342
200	0xbdbb9311	-0.0915891
201	0x3e0039b4	0.12522012
202	0xbc1a8673	-0.009431469
203	0x3d5692d3	0.052386116
204	0x3d4947d8	0.04914078
205	0x3c07ebf9	0.008296006
206	0xbd4a2530	-0.04935187
207	0xbc08c66e	-0.008348091
208	0xbbaf52ca	-0.0053504454
209	0xbc5cd81d	-0.01347926
210	0xbd77defa	-0.06051538
211	0xbc74e977	-0.0149482405
212	0x3c6bdaa5	0.014395391
213	0x3bffd4bf	0.0078073437
214	0x3c544966	0.012956953
215	0xbd1fbd5a	-0.03899894
216	0xbd094da4	-0.03352131
217	0xbcc0444f	-0.023470072
218	0x3d1138e6	0.035454653
219	0x3c556c98	0.013026379
220	0x3b8cd5b2	0.0042979354
221	0xba83ee0c	-0.001006545
222	0xbd792364	-0.060824767
223	0x3da9e6db	0.08295985
224	0x3d8bd01c	0.06826803
225	0xbd39f15e	-0.0453962
226	0x3cd98ec4	0.026557334
227	0x3d526f7e	0.05137586
228	0x3d295287	0.04133847
229	0xbd908440	-0.07056475
230	0x3d1f494d	0.038888264
231	0xbd28b96f	-0.04119247
232	0x3ccf2977	0.025288327
233	0x3c35fbef	0.011107429
234	0x3d25cb4a	0.040477075
235	0xbdae34af	-0.08506142
236	0xbd3b00b8	-0.045654982
237	0xbd170711	-0.036871973
238	0xbd6ec4bc	-0.05829309
239	0x3c85ac79	0.016317593
240	0xbd28e4c1	-0.04123378
241	0x3cbe0f70	0.02320072
242	0x3dc0ec96	0.09420125
243	0xbd5a409d	-0.053284276
244	0x3b647785	0.0034861278
245	0xbd8ea1f7	-0.06964486
246	0xbcd4a116	-0.025955718
247	0x3cefc40a	0.029268283
248	0x3d59b88c	0.053154513
249	0x3c9af63e	0.018916246
250	0x3d7f8258	0.062380165
251	0xbd5035bf	-0.050832506
252	0x3d570dcd	0.052503396
253	0xbca27af3	-0.019834017
254	0xbd797fd9	-0.06091294
255	0xbcfe23ec	-0.031022988

layers.0.bias f4 [256]
0	0x3daaced3	0.0834023
1	0xbcd7f839	-0.026363479
2	0xbdf70731	-0.120619185
3	0xbd5dba28	-0.05413261
4	0xbdfb2eff	-0.12264823
5	0x3c1dbad8	0.009627067
6	0x3bde6c57	0.0067878175
7	0xbdaf65b2	-0.08564319
8	0xbce606ca	-0.02807941
9	0x3de9a6a4	0.11408737
10	0xbbd90d8c	-0.0066239294
11	0xbdbae7ef	-0.09126269
12	0xbdf675dc	-0.12034199
13	0x3d0d544d	0.034504224
14	0xbd9bb1c9	-0.07602269
15	0x3d51fe0e	0.051267676
16	0xbd16fcf6	-0.036862336
17	0xbce5cf30	-0.028052896
18	0x3c8f7a97	0.01751451
19	0xbda20191	-0.07910455
20	0xbd900107	-0.07031446
21	0xbaac5cb5	-0.0013150187
22	0xbd7bf246	-0.061510347
23	0xbb2334d5	-0.0024903317
24	0xbd9e9835	-0.07743875
25	0xbca387d1	-0.019962223
26	0x3b8ec139	0.00435653
27	0xbd3dcb5f	-0.046336528
28	0x3b8e6f46	0.004346761
29	0x3da46ffb	0.08029171
30	0xbc829ed1	-0.01594487
31	0x3d1e5174	0.0386519
32	0x3d23cf06	0.039992355
33	0xbda0f3ec	-0.078590244
34	0xbb175f03	-0.0023097403
35	0xba9610de	-0.0011449119
36	0x3d086ae0	0.03330505
37	0xbc8305d1	-0.015993984
38	0x3beeb6c6	0.007284972
39	0x3de0df51	0.10980094
40	0xbda29c7c	-0.07940003
41	0xbde1417c	-0.10998818
42	0x3d735473	0.05940671
43	0xbdfc606a	-0.12323077
44	0x3d8b0b42	0.06789257
45	0xbcdf22b7	-0.027238233
46	0xbcce1153	-0.025154745
47	0xbd92c052	-0.071655884
48	0x3d23f8be	0.04003214
49	0xbcf6f2f6	-0.03014515
50	0xbda6c8f4	-0.081437975
51	0x3da52d90	0.08065331
52	0xbdb43402	-0.08798982
53	0xbd36753b	-0.044545393
54	0xbcd612e8	-0.026132062
55	0xbd2dcf5b	-0.042434078
56	0xbd23cadd	-0.039988387
57	0xbdac825d	-0.08423302
58	0xbbc21864	-0.0059233177
59	0xbdcb37c0	-0.09922743
60	0xbd89141a	-0.06693287
61	0xbc9e1b64	-0.01930017
62	0xbd47b5bc	-0.0487573
63	0xbc583849	-0.013197013
64	0xbe2419d2	-0.16025475
65	0xbc9f106e	-0.019417014
66	0x3da422c1	0.08014441
67	0xbd6e2bd8	-0.05814728
68	0x3e178ac1	0.14799024
69	0x3aeda468	0.0018130662
70	0x3d628138	0.055299014
71	0x3c8c961a	0.017161418
72	0xbe0dbd71	-0.13841797
73	0xbc05f1dd	-0.0081753405
74	0x3cf8ec17	0.030386014
75	0xbd2529bc	-0.040323004
76	0x3d1cea68	0.038309485
77	0xbdb777e6	-0.08958416
78	0xbd5a894b	-0.05335359
79	0x3da22b38	0.079183996
80	0xbbc1ffa5	-0.005920368
81	0x3d90e49c	0.07074854
82	0xbd26256e	-0.04056304
83	0x3da5d050	0.08096373
84	0xbd88863a	-0.06666227
85	0x3d247b3a	0.04015658
86	0x3d8cc055	0.06872622
87	0xbb16bb8b	-0.0022999968
88	0xbc587e49	-0.0132137025
89	0xbd19bdb8	-0.037534446
90	0xbda1aaa7	-0.078938775
91	0x3e46d25c	0.19416183
92	0xbe08fb31	-0.13377072
93	0xbcebd4a3	-0.028787917
94	0xbd99a473	-0.07502069
95	0xbd96bce0	-0.07360244
96	0xbd25e519	-0.040501688
97	0x3d76837a	0.06018398
98	0x3e335b3b	0.1751527
99	0xbd69422a	-0.056947865
100	0xbbeb785c	-0.007185979
101	0x3d6440ed	0.05572598
102	0xbced84aa	-0.028993923
103	0xbd9ac9a5	-0.07557992
104	0x3d90ef04	0.070768386
105	0xbd0843e2	-0.033267863
106	0xbc19d9af	-0.009390279
107	0xbd98a668	-0.074536145
108	0xbcb7e567	-0.022448255
109	0xbd1d8517	-0.038457002
110	0x3e0a5b96	0.135115
111	0xbd38188b	-0.04494528
112	0xbd1f0f7f	-0.038833138
113	0xbdae4c58	-0.08510655
114	0x3d40258c	0.046910807
115	0xbdfa4af9	-0.12221331
116	0xbd944d8e	-0.07241355
117	0x3c03fc8d	0.008055818
118	0x3d399c4f	0.045315083
119	0xbca996ab	-0.020701727
120	0x3d51b173	0.05119462
121	0x3d087d8a	0.03332285
122	0xbd711af2	-0.058863588
123	0xbd7ecd85	-0.062207717
124	0xbe1065ef	-0.14101385
125	0xbdfb2b77	-0.1226415
126	0xbd6853cb	-0.056720536
127	0xbdbd0ace	-0.092305765
128	0xbd5a98dd	-0.053368438
129	0x3db1d616	0.08683412
130	0x3d0f7111	0.035019938
131	0xbde696be	-0.112592205
132	0xbd2231ab	-0.03959815
133	0xbcb829f3	-0.02248094
134	0xbdb27a22	-0.08714701
135	0xbd721fc8	-0.05911234
136	0x3cff6b54	0.031179108
137	0xbc4904b7	-0.0122691905
138	0xbabe9f83	-0.0014543388
139	0xbd894d0d	-0.067041494
140	0x3c12db9b	0.008963491
141	0x3d41419b	0.047181707
142	0xbd5c59aa	-0.053796448
143	0xbcfa8661	-0.030581655
144	0xbde553f5	-0.11197654
145	0xbd0bc0b1	-0.03411931
146	0xbde74ef1	-0.11294354
147	0x3ca36a5d	0.019948179
148	0xbd9929cd	-0.07478676
149	0xbc9a240e	-0.01881602
150	0xbcbe3506	-0.023218643
151	0x3c85fd0e	0.016356017
152	0xbdca5df6	-0.09881203
153	0x3c6a9ef1	0.014320121
154	0xbceaf251	-0.028679999
155	0x3d3eb853	0.046562504
156	0x3d161048	0.03663662
157	0xbdb9facc	-0.09081039
158	0xbc97874c	-0.018497132
159	0xbcd2c5bd	-0.025729055
160	0x3d8c050e	0.068369016
161	0xbe4f3569	-0.20235218
162	0xb9b20d5e	-0.00033960765
163	0xbda69eb9	-0.08135743
164	0xbe0a822f	-0.13526224
165	0xbdd0f2b2	-0.102025405
166	0xbd81dd20	-0.06341004
167	0x3dd5e261	0.10443569
168	0xbc97b48d	-0.01851871
169	0x3d3db0cb	0.04631118
170	0x3d8593bc	0.06522319
171	0xbc6a5e01	-0.014304639
172	0xb914ea2d	-0.00014201617
173	0xbdce515d	-0.100741126
174	0xbc145461	-0.009053321
175	0xbd7a6d55	-0.061139423
176	0xbe816249	-0.25270298
177	0x3c82b277	0.01595424
178	0x3d0b9a2e	0.034082584
179	0xbd7ce46b	-0.061741274
180	0xbe28d860	-0.1648879
181	0x3d943022	0.07235743
182	0xbccfb5aa	-0.025355179
183	0x3c670803	0.014101031
184	0x3d1d359b	0.0383812
185	0xbda6435c	-0.081183165
186	0xbc52a666	-0.012857055
187	0x3d25306d	0.040329386
188	0xbdf4da3f	-0.1195569
189	0xbc5f2471	-0.013619528
190	0xbd33355a	-0.043752052
191	0x3d2c0429	0.041996155
192	0xbdd55402	-0.10416414
193	0xbdd338e6	-0.10313587
194	0xbdc78676	-0.09742443
195	0xbc1ce1e7	-0.009575344
196	0xbddfc8f0	-0.10926998
197	0x3c4bb354	0.012432892
198	0x3c53f56d	0.012936932
199	0xbd290b4f	-0.04127055
200	0x3d46c794	0.048530176
201	0xbd69e4d6	-0.057103
202	0x3dbce610	0.092235684
203	0xbd7844f7	-0.060612645
204	0xbab4ae68	-0.0013784887
205	0x3d0e6a8b	0.034769576
206	0xbe050fd5	-0.1299432
207	0xbdcab768	-0.09898263
208	0xbda1954f	-0.078898065
209	0x3c9ef58b	0.019404193
210	0xbdd2d3fa	-0.102943376
211	0xbc3764bb	-0.01119345
212	0xbda19011	-0.078888066
213	0x3d152655	0.03641351
214	0xbd47eb32	-0.048808284
215	0x3d480484	0.04883243
216	0xbd5040cf	-0.050843056
217	0xbdac15bf	-0.08402585
218	0x3cc98831	0.024601074
219	0xbd75a796	-0.059974276
220	0xba913ecf	-0.001108134
221	0xbe02d954	-0.12778217
222	0x3e1db1e0	0.15399885
223	0xbe2961da	-0.16541234
224	0xbce46e4c	-0.027884625
225	0x3d4c5f01	0.04989529
226	0xbc25120d	-0.010075104
227	0xbc02b32c	-0.007977288
228	0x3c9d9395	0.019235412
229	0xbd4da70f	-0.050208148
230	0xbdb90a5e	-0.090351805
231	0xb8a642a1	-7.9279074e-05
232	0xbd9888c7	-0.07447963
233	0x3c28a940	0.010294259
234	0xbd810eea	-0.06301673
235	0x3cc0b8c6	0.023525607
236	0x3e0c40f2	0.1369665
237	0xbdc4f2c3	-0.096166156
238	0x3d29d01d	0.041458238
239	0x3bedcc23	0.007257001
240	0xbda7e409	-0.08197791
241	0xbb219d5c	-0.0024660444
242	0xbc332e6c	-0.010936361
243	0xbd9d5a17	-0.07683199
244	0xbd595033	-0.053055
245	0xbd8ffa36	-0.07030146
246	0x3dda0108	0.10644728
247	0x3d88b031	0.06674231
248	0x3d55f271	0.052233163
249	0xbcfbdb08	-0.03074409
250	0xbe42a276	-0.19007286
251	0xbd941f59	-0.072325416
252	0xbc231e3a	-0.009955937
253	0xbb9dfa59	-0.0048211035
254	0xbdd2be73	-0.102902316
255	0xbd40f8bd	-0.047112215

layers.1.weight f4 [8, 256]
0	0x3e248029	0.16064514
1	0xbdd1b892	-0.10240282
2	0xbe0855a4	-0.1331392
3	0xbd562685	-0.05228283
4	0x3e5dc3b9	0.21656694
5	0xbe9de1e0	-0.3083639
6	0xbe558380	-0.20850945
7	0x3e868fe1	0.26281646
8	0xbedce3b7	-0.43142483
9	0xbe54443d	-0.20729156
10	0xbe1f87f2	-0.15579203
11	0xbe77a5f2	-0.24184397
12	0x3da5e6bf	0.08100652
13	0x3e39f95c	0.1816153
14	0xbecb38d0	-0.39691782
15	0xbd15da3d	-0.03658508
16	0xbeecb853	-0.46234378
17	0xbe0db0e7	-0.13837014
18	0xbed9082e	-0.42389053
19	0xbedb9c63	-0.4289275
20	0xbe45755d	-0.19283052
21	0x3e832a42	0.25618178
22	0x3ea54e4b	0.32286295
23	0xbd248d78	-0.040173978
24	0x3dea63e4	0.11444834
25	0xbe0bef83	-0.13665585
26	0xbe70132b	-0.23444812
27	0xbef71bf3	-0.4826351
28	0xbe8dbf36	-0.27684945
29	0xbde6dd83	-0.11272719
30	0xbe71e00d	-0.23620625
31	0x3e65d820	0.22445726
32	0x3e1f0819	0.15530433
33	0x3ec0bd5c	0.3764447
34	0x3e36e8d8	0.1786226
35	0xbe8ab999	-0.27094725
36	0x3c497fa9	0.012298503
37	0x3dec922e	0.11551319
38	0x3daaeb75	0.08345691
39	0xbe86dbfb	-0.26339707
40	0x3eaf68f1	0.3425975
41	0xbec936e3	-0.39299688
42	0xbe6ddaa5	-0.23227938
43	0xbe13c0a0	-0.1442895
44	0x3dfa95b4	0.12235585
45	0xbdf23591	-0.11826623
46	0xbf2861b1	-0.65774065
47	0xbe8229e9	-0.254226
48	0xbedaabcf	-0.42709205
49	0xbeda23c1	-0.42605403
50	0xbedb113e	-0.42786592
51	0xbefb3258	-0.49061847
52	0xbd2f905a	-0.042862274
53	0x3e8158aa	0.25262958
54	0xbe89ff46	-0.2695257
55	0xbee7f1c1	-0.4530163
56	0xbeb3685e	-0.35040563
57	0xbe380113	-0.1796916
58	0x3c9c4d50	0.019079834
59	0x3ea47c2c	0.32125986
60	0x3e8f53ed	0.27993718
61	0xbd0f0a8b	-0.034922164
62	0xbe933cfb	-0.28757462
63	0x3e72a768	0.23696673
64	0x3e5193bd	0.20466514
65	0xbdeafc1d	-0.11473868
66	0xbed8dda9	-0.42356613
67	0x3ea56c50	0.32309198
68	0x3e2d8f0f	0.16949104
69	0xbe42faa5	-0.19040926
70	0x3e3191ab	0.17340724
71	0x3e883a76	0.26607102
72	0xbd0adc2b	-0.033901375
73	0x3e49e3c4	0.19715792
74	0xbde9d19f	-0.11416935
75	0x3e4fee30	0.20305705
76	0x3e4b4cd3	0.19853525
77	0xbeaba23c	-0.33522213
78	0x3e1a7650	0.15084195
79	0xbe155348	-0.1458255
80	0xbe861175	-0.26185194
81	0xbdc6326f	-0.09677588
82	0x3e56a944	0.20963007
83	0xbe08e668	-0.13369143
84	0x3d1f4664	0.03888549
85	0xbeece70f	-0.46270034
86	0xbe40fa0b	-0.18845384
87	0xbe33a57a	-0.17543593
88	0xbee0851a	-0.43851548
89	0xbdf49eff	-0.119443886
90	0x3ea4b030	0.3216567
91	0xbea0a453	-0.3137537
92	0xbe9dc112	-0.30811363
93	0x3e10b226	0.14130458
94	0x3ea356a1	0.3190203
95	0x3e1cb361	0.15302803
96	0xbedc8609	-0.4307101
97	0xbe911895	-0.28339067
98	0xbe9bc251	-0.3042169
99	0xbe936151	-0.28785184
100	0x3e267266	0.16254577
101	0xbe440ad1	-0.19144751
102	0x3e6104d4	0.21974498
103	0x3e8bda11	0.2731481
104	0x3e6753f2	0.22590616
105	0x3e6d89d6	0.23197111
106	0xbea2bff4	-0.31787074
107	0x3e86978f	0.26287505
108	0x3e1f2f87	0.15545474
109	0xbe259cf3	-0.16173153
110	0xbdeb0a47	-0.114765696
111	0xbe948266	-0.29005736
112	0xbe96c9f6	-0.2945096
113	0xbc88d072	-0.016700957
114	0xbea2a71c	-0.3176812
115	0xbe8c9b1a	-0.27462083
116	0xbee04fdb	-0.43810925
117	0xbe80236d	-0.25027028
118	0x3bd3c986	0.0064632325
119	0xbd5b0a50	-0.05347663
120	0xbebfedba	-0.37486058
121	0xbe26e56f	-0.1629846
122	0xbeaf7d67	-0.34275362
123	0x3e3c5fd8	0.18395936
124	0x3eb0f68d	0.34563103
125	0x3dfe00e3	0.12402513
126	0xbe6e3b73	-0.23264866
127	0xbe19791a	-0.14987603
128	0x3e41d1a4	0.18927628
129	0x3e8927a0	0.26788044
130	0xbe390eae	-0.18072006
131	0x3e8500da	0.25977212
132	0xbe9e281b	-0.30889973
133	0xbebea02f	-0.37231585
134	0x3e508a09	0.20365156
135	0x3add67bb	0.0016891876
136	0x3dd74c67	0.105126195
137	0x3e90ae5d	0.2825803
138	0xbecb0a1e	-0.39656156
139	0xbd043e6d	-0.032286096
140	0xbdf536ea	-0.11973365
141	0xbea3e7e5	-0.3201286
142	0x3e6843bb	0.22682087
143	0xbe8592e9	-0.26088646
144	0xbe0e7c50	-0.13914609
145	0xbdc708ea	-0.09718497
146	0xbea7472a	-0.3267148
147	0xbe74ccd8	-0.23906267
148	0xbec441a0	-0.38331318
149	0xbed962af	-0.42458102
150	0x3e1f0a47	0.15531264
151	0xbdc9a9ac	-0.098468155
152	0x3ea21672	0.3165775
153	0xbea8d5b8	-0.32975554
154	0xbe12d6a8	-0.14339697
155	0x3e101ab1	0.14072682
156	0xbe1d3012	-0.15350369
157	0xbdcd96ed	-0.100385524
158	0xbe8471f9	-0.25868204
159	0xbe2cb51d	-0.16865964
160	0x3e6f71be	0.23383233
161	0x3e168a1e	0.14701125
162	0x3e2990eb	0.16559188
163	0xbeb1b4be	-0.34708208
164	0xbe094a76	-0.13407311
165	0x3d37da0c	0.04488568
166	0x3d339680	0.0438447
167	0xbeff53d2	-0.49868637
168	0xbec5d9e4	-0.386428
169	0xbf1798d6	-0.59217584
170	0xbeab1e6a	-0.33421642
171	0x3df138cd	0.11778412
172	0xbdf8ee77	-0.121548586
173	0xbdbdbf87	-0.092650466
174	0xbe82a9d5	-0.25520197
175	0xbe380320	-0.17969942
176	0x3e54a6aa	0.20766702
177	0x3eb6f39e	0.3573274
178	0xbede917a	-0.43470365
179	0xbeefb517	-0.46817848
180	0x3e19200b	0.1495363
181	0xbe909f0c	-0.28246343
182	0x3dc929ee	0.098224506
183	0x3eb10c1a	0.34579545
184	0x3df24d00	0.11831093
185	0x3de27a9c	0.11058542
186	0xbe6d7036	-0.23187336
187	0xbeb33239	-0.34999254
188	0xbd29b03b	-0.041427832
189	0xbf16ef88	-0.58959246
190	0x3eaee6e4	0.3416053
191	0x3bf3be2f	0.007438443
192	0x3d05b7ab	0.032645863
193	0x3e6998e2	0.22812226
194	0xbebec7dd	-0.3726186
195	0xbe35df07	-0.1776086
196	0x3ea0d095	0.31409135
197	0xbeb79c08	-0.3586123
198	0xbe3abaeb	-0.18235366
199	0xbec470fa	-0.38367444
200	0xbed578d9	-0.41693762
201	0xbe5b343c	-0.21406645
202	0x3e29ef48	0.16595185
203	0xbce845eb	-0.028353652
204	0xbc97f161	-0.018547716
205	0x3e19bf1e	0.15014312
206	0xbea858fc	-0.3288039
207	0xbed01219	-0.40638807
208	0xbe66adf2	-0.22527292
209	0xbf0d81ee	-0.5527638
210	0x3e57929b	0.2105202
211	0x3e18b084	0.14911085
212	0x3e36399a	0.17795411
213	0xbe7a3d3f	-0.24437426
214	0x3db5c6fd	0.08875845
215	0x3d45056e	0.04810088
216	0xbec19fcd	-0.3781723
217	0x3ddb544a	0.10709436
218	0x3e3fc12c	0.18726033
219	0x3e4e20ec	0.20129746
220	0xbe972726	-0.29522055
221	0xbe2998bf	-0.16562174
222	0xbea47776	-0.3212239
223	0x3db67d64	0.08910635
224	0x3dd6f065	0.1049507
225	0x3e07ab87	0.13249026
226	0xbe8e0c63	-0.27743825
227	0x3ea26792	0.31719643
228	0x3c91ec28	0.017812803
229	0xbe189826	-0.1490179
230	0x3e3a2f63	0.18182139
231	0x3e76a97f	0.24088095
232	0x3e861e1d	0.2619485
233	0xbea9f0f4	-0.33191645
234	0xbea8e752	-0.32988983
235	0x3e308d10	0.17241311
236	0x3e80049b	0.25003514
237	0xbea57316	-0.32314366
238	0x3e28917b	0.16461746
239	0x3e4c04c9	0.199237
240	0xbe8915ad	-0.2677435
241	0xbe8a9e29	-0.27073792
242	0xbe93ed02	-0.2889176
243	0xbdb087bc	-0.08619639
244	0xbd74a4bb	-0.05972741
245	0xbe96bc5e	-0.29440588
246	0xbea324e8	-0.31864095
247	0xbec734e9	-0.38907555
248	0xbe96718d	-0.29383507
249	0xbeac9e4e	-0.33714527
250	0xbdf3b267	-0.11899262
251	0xbf07dcd8	-0.53071356
252	0xbeac2ac7	-0.33626387
253	0xbea49279	-0.32143
254	0x3eb8e0d6	0.36109036
255	0xbe0fbbeb	-0.14036529

layers.1.bias f4 [8]
0	0x3cb9a671	0.022662373
1	0xbc499723	-0.0123041
2	0xbb693145	-0.0035582345
3	0xbd0e1f6d	-0.03469794
4	0xbb34fd31	-0.0027616734
5	0x3c78b704	0.015180353
6	0xbd4a16e1	-0.049338225
7	0x3d70f2b8	0.058825225
