model_weights/logreg_model_Azn_com.pth (torch, 537389 bytes, 4 tensors)

layers.0.weight f4 [256, 512]
00000000: 846b 1ebd 0136 aabd 4cf5 bcbd d57e 0f3c
00000010: 26bf 87bc 4b7d 0c3d 3772 153d 9464 db3c
00000020: ad9e 92bc f92b 503d d06e 393d 64d1 07bd
00000030: 788b b3bd 1245 46bb 6432 e13b a52a 883c
00000040: 33ec af3d b58a 89bd 8d27 f83d ada5 c43d
00000050: 8a3f 79bc a92b 9ebd e945 e73d dcc5 253d
00000060: aa4e 0ebd 88ed b13d 858b 1bbd 3132 09bd
00000070: f76b b73d c6c0 8f3d 08f6 bcbb 7ecf 8e3d
00000080: 2f61 1bbd 3923 59bd 6bcc a1bd e747 9e3d
00000090: 3ee5 e4bd b8d8 243d a089 8dbc 78dd d93c
000000a0: 760f fa3a 9501 a5bc d367 cd3d dc0f 9e3d
000000b0: e996 05be 81e0 59bc fa4e 8d3b 6834 1f3d
000000c0: b09d 14bc 9a2e 36bd c3cc e93c eae9 e53c
000000d0: ab23 b2ba c0a9 35bd af11 a73c 328f b83d
000000e0: 5284 503d 608a 33bd 971b cabc 12c3 62bd
000000f0: 26d9 1abd 517c fb3d 1500 cbbd 89f0 6cbd
00000100: 2df8 d33d 5145 22bd 76d5 8c3c 4b73 1d3c
00000110: a63b a7bd 8eca f73c a891 98bd 3256 bbbd
00000120: f858 1cbd cc1b 083d 388f 883c 3c53 e63c
00000130: eb84 323d d31a a6bd fd8c b43c 892b fabc
00000140: 93e8 d2bc 2265 fbbd 8cbe a8bd 909f 04bd
00000150: 4f47 3f3c 00bb 9bbc fca7 1cbd b82f 0d3d
00000160: 8613 80bd bcfc 4fbd 535b 073d b5e6 1ebc
00000170: 6516 663d 3378 f3bd d405 023d 1df8 273c
00000180: a31a acbd 3425 1fbd 5e41 f9bd 82a8 d6bc
00000190: 60ac d83c 6b6c 523c f461 783d 4540 8abd
000001a0: cf49 e8bc 5e8c 86bd b9e9 a83d c414 36bd
000001b0: fcf5 54bc 8304 c9bb c86a b1bd fe70 653c
000001c0: 9a4d f23b e2ad 363d 6e69 c1bd 9208 5cbc
000001d0: f72d d13c 6837 9c3c 8d6a 3ebd 0bca 94bd
000001e0: 1972 93bd d768 70bd 7932 2cbd 9a58 1cbd
000001f0: 6fcb a33d b41d 32bd 8586 d63d 474c 77bd
00000200: a706 6d3c abad 0ebd b728 63bd b486 3ebc
00000210: bd79 94bc 601d cdbb 59b8 ec3d 9bae d3bd
00000220: 7881 f1bc 7ad9 2d3c f382 7dbd ee77 903d
00000230: f787 923c 2ea8 acbd 6e44 123b 4c3d 41bc
00000240: 677c 08bc 074e a33d 8e96 5cbd 1f5f 833d
00000250: f391 c93c 1536 a03d 8c2e dcbb e285 af3c
00000260: 838b 0dbd ccec cd3c 0fed af3c 7054 5e3b
00000270: 232a 4fbd f826 74bc 343c c2bc ff52 263d
00000280: 8ca0 99bd 6542 8cbd 2fef ae3d 5164 5fbd
00000290: 4bf6 b6bb a0c7 85bd 2def b5bb b5b3 93bd
000002a0: e1e9 c53c 44bd 0e3c dfd7 ffbd bd1b 68bd
000002b0: f076 3a3c 6ba3 cc3c 5eed 94bd 5099 bd3b
000002c0: 3d70 fbbc cc59 093c 28da f0bc 7ec7 56bd
000002d0: f4bb a3bd 12b4 883d 1154 d23d fc58 06bd
000002e0: 8d75 e9bd 9a5d b13a 2512 08bd c789 fdb9
000002f0: ad0f 80bc a196 ce39 71c1 003e 196b 073e
00000300: e293 3d3d ed9d 603d c9d7 833c 4bcf c33a
00000310: 5313 013d 847c a5bd f06b 1ebc 98ca 643c
00000320: 1272 7a3d df40 edbc 60c1 3dbd b8f4 083c
00000330: 6012 c1bc d561 363c 8852 863d c017 903d
00000340: f6a9 2dbd 495c c2bc 09bb a9bc ebe8 963b
00000350: 7f02 7dbd e8c5 6dbd cc7a bd3d a879 a7bc
00000360: 3018 1ebd 8a62 bf3d e067 a53b e679 583d
00000370: 6e28 2a3d 8d80 a6bd 6cfa 0a3d e1fc de3c
00000380: 9d82 ee3c d3c3 a23d 290c fe3c 5569 a73d
00000390: 91b7 52bd 293d 68bd dea9 893c 854e cdbc
000003a0: 8472 06bb 924c 38bd 1e2e 92bd 51a4 973d
000003b0: 7c09 423d 0d99 3f3d be39 c2bd 5d3b 50bd
000003c0: 8807 4dbd 032b 4a3d 4456 02be fb84 863d
000003d0: 85ce ddbd 173b 73bd 9c24 9d3d 7d7c 263d
000003e0: be7f 34bd d301 2bbd 617f 023b 1c6f 793c
000003f0: feb0 c1bc 0dca 69bd 6601 21bd 2ed7 48bd
-0.038676754 -0.08311082 -0.09226474 0.008758266 -0.016570639 0.034299176 0.036485877 0.026781358
-0.017897928 0.050823186 0.045271695 -0.033158675 -0.08766836 -0.0030253571 0.006872462 0.016621897
0.08589973 -0.067159094 0.12116919 0.09601913 -0.015212903 -0.07723171 0.11292631 0.040471897
-0.03474299 0.086878836 -0.037974853 -0.033495132 0.089561395 0.070191905 -0.005766634 0.0697317
-0.03793448 -0.053012107 -0.07900318 0.07728558 -0.11176537 0.04024574 -0.017277539 0.026594862
0.0019078094 -0.020142356 0.100295685 0.07717869 -0.13045849 -0.013298155 0.0043123933 0.038868338
-0.009070799 -0.044478036 0.02854002 0.02806564 -0.0013590952 -0.04435134 0.020394174 0.09011687
0.05090744 -0.043833137 -0.024671359 -0.055361815 -0.037804745 0.12279571 -0.09912125 -0.05784658
0.1035007 -0.039616887 0.01719163 0.0096100075 -0.08165674 0.030247953 -0.07449657 -0.091473
-0.038170785 0.033229634 0.016669855 0.028115861 0.04358379 -0.08110585 0.022039885 -0.030538337
-0.025745666 -0.12275149 -0.08239469 -0.032378733 0.011674716 -0.019010067 -0.03824614 0.034469336
-0.06253724 -0.050778136 0.033046078 -0.0096985595 0.0561737 -0.118881606 0.03174384 0.010252026
-0.08403518 -0.03885384 -0.12170671 -0.026203398 0.026449382 0.012843232 0.06064029 -0.0675054
-0.028355507 -0.06569742 0.08247704 -0.044453397 -0.0129981 -0.006134571 -0.08662945 0.01400399
0.0073945047 0.04459942 -0.09443937 -0.013429778 0.025534613 0.019069389 -0.046488333 -0.07265099
-0.07199497 -0.058693733 -0.042040322 -0.038170435 0.07997786 -0.04348536 0.10474876 -0.060375478
0.014466918 -0.03483359 -0.05545875 -0.011628795 -0.018124456 -0.0062596053 0.11558599 -0.10336038
-0.02948068 0.0106109325 -0.06189246 0.07054125 0.017887099 -0.08430515 0.002231862 -0.0117943995
-0.008330441 0.07973867 -0.053854518 0.06414627 0.024605727 0.07822815 -0.006719416 0.021426145
-0.034556877 0.025137328 0.021475343 0.003392484 -0.050577294 -0.014901869 -0.023710348 0.040606495
-0.07501325 -0.06848601 0.085417144 -0.05453903 -0.0055835596 -0.06532216 -0.0055521936 -0.07212011
0.024159374 0.008712117 -0.12492346 -0.05666708 0.011380896 0.024980268 -0.07271837 0.0057860985
-0.030693168 0.008383226 -0.0294009 -0.052436344 -0.079948336 0.06674971 0.10269941 -0.032799706
-0.11399374 0.0013531924 -0.03322043 -0.00048358573 -0.015632475 0.0003940361 0.12573792 0.13224448
0.04628361 0.05483811 0.016094105 0.0014939097 0.03151257 -0.0808039 -0.009669289 0.013964318
0.061143942 -0.028961597 -0.046326995 0.008359127 -0.023568332 0.011131723 0.0655871 0.0703578
-0.042398416 -0.023725646 -0.020719068 0.0046054027 -0.06176996 -0.058050066 0.09251937 -0.020443752
-0.038597286 0.09344967 0.0050477833 0.052850626 0.041542463 -0.08129988 0.033930227 0.027220191
0.029115016 0.07947507 0.031011658 0.08174387 -0.051444594 -0.056698952 0.016804632 -0.025061855
-0.0020515034 -0.0449949 -0.071377024 0.07404388 0.047372326 0.04677682 -0.0948367 -0.050837863
-0.05005601 0.049357425 -0.1272822 0.06568333 -0.10830406 -0.059382524 0.07672998 0.040646065
-0.044067137 -0.041749787 0.001991235 0.015224244 -0.023643967 -0.057077456 -0.039307974 -0.049033336

layers.0.bias f4 [256]
00000000: b466 acbd ccdf bcbd 021a 01be d9ae 88be
00000010: 73af 88be 44b2 22be b500 bf3d a688 1ebd
00000020: fc96 7dbe db6d 243e d6f8 dcbd 95b8 85be
00000030: 8734 38bd 57c9 2b3a 1076 20bd 662f 1c3d
00000040: e384 e43d 2719 7e3d 9223 85be 1e58 abbd
00000050: 347c 9fbe 7d04 f4bd cbf6 ae3e bf78 67be
00000060: 611b 90bd b9ba 9ebe 397b 74bd 502e 093e
00000070: 447e 10be 6c68 493d 151d f93d 6baa 513d
00000080: 50ea 0dbe ad0e 8fbc 45e4 bd3d 44d0 a8bd
00000090: cf8e 68bc c255 593d 4f52 ebbe e8d4 423e
000000a0: ea91 77be 30dd 083d 35fe 70be 63e3 7cbe
000000b0: 2fb5 b1bd 97d5 2fbc 22bd 813d e7b5 2bbe
000000c0: d5fe a3bc 6d85 11be f444 e4bc b3a7 37bb
000000d0: bd51 12be d221 e6bd d346 efbc c315 08be
000000e0: 17c7 403d f92b 01be fc40 513d bc6a 6bbd
000000f0: ac42 97bc 0d95 0b3c 511b a5bd 7ccc 0cbe
00000100: 3df0 76bd 742c 0ebd 7916 b2bd 9ae9 393d
00000110: cf88 403e 1f0a 883e d1a5 34be d93f 853c
00000120: 7be9 643e c030 7bbe 054f 903d 624f fa3b
00000130: 537c e2bd 15c6 0c3d d1ff 79b8 9fae ce3d
00000140: f746 e4bd e822 86be e829 9d3e 7d3d 4ebe
00000150: ef2b a5bd a6fe acbe be5c 2cbc 8822 1cbe
00000160: 9aea 093e 0097 313e a93c 7cbd ad86 b43b
00000170: 507e ad3c 5244 803d 3b32 b33d f1e3 4ebe
00000180: 4d65 093e 26c7 a63c dc2a b7bc 07db 033d
00000190: e7ff 413e c629 2b3b 2bc0 04be 37d1 773e
000001a0: 6afd b4bd 0f72 623c 737e 8abe f4d1 afbe
000001b0: 3b78 dc3c 2961 2abe e6ef ff3b 19c8 bf3d
000001c0: 3919 183e 9510 28bd a508 63bd 34f0 273e
000001d0: 8d21 24bd 7b01 b53e 926d 64bc ddde 41be
000001e0: f23b 48be 6668 de3c 549a 8dbe ed87 813d
000001f0: ca23 87bd 0af1 e43d 72b4 34be 3434 173d
00000200: f927 833d e5ae 75be 5e3d cabd 0f08 99bc
00000210: f71e 4c3e d438 653d 6092 863b f192 333e
00000220: e749 76be b987 93be db22 33be 6483 fa3d
00000230: b8de 183e 85ac 1f3e 8f58 bf3c 49b9 ddbb
00000240: 3cfa c23d f465 ecbb fe8c 0ebe ab76 663e
00000250: 2752 8a3d 581f 37be f732 073e 7246 d23d
00000260: 54c7 38be 16db 19bd 96b2 bbbd d193 1cbe
00000270: cd08 9c3d b881 9cbe f28e 1abe 4c31 84bd
00000280: f624 d23d 85b2 a9be 32ff 5fbe 74e7 1dbd
00000290: 5fb1 9c3d 28e1 a1bd 4e07 71be f0dd e9bb
000002a0: 3fe6 3e3e ae12 57be 846e 91bd f2d8 563d
000002b0: ec23 0bbe 4131 15be 2321 c53c 7c43 b23e
000002c0: 6829 893e f5e6 0cbe 2c5a b53c 62c6 503d
000002d0: 2d61 70bd b9fc 573e 2075 0abe 78e6 33be
000002e0: 809b 8dbd 87d5 af3d e250 26be 5da1 243d
000002f0: 6b9b 8abd cbdf abbe 93b7 ce3d 1a89 3dbe
00000300: d7e1 54be a51e 06bd 2051 473d e366 abbd
00000310: af52 3b3e 454b 1abe 20bb 21be 1824 29be
00000320: d97a 36be a134 b7be a002 0e3e c73f 97be
00000330: d3c0 ce3e 23e0 333e b7ab 9abe 2196 fabd
00000340: 933c 023e 47f4 21bd e967 0fbe d0bf 3f3e
00000350: ed76 6bbe 4d6d 013e 219f ea3c a265 25b9
00000360: 0af5 cbbd 50e4 92bd 4a10 3a3e da9e 31be
00000370: 8887 db3c c5ac 37bd 4403 98bd 728c 873d
00000380: bf98 25be 920e 9ebe f997 77be 4860 8bbd
00000390: a91d 933c 185e 2bbc a29a 45be 8124 c73d
000003a0: 447b 8fbd eac6 14be 2478 5dbe 062f c9bd
000003b0: 607f a3bc ae23 153d f01c c9be 5da1 7a3c
000003c0: 7e0c b6bd 5ba5 3e3e ac3b 3ebd ced8 71be
000003d0: 7248 28bc 29aa 43be ab5c d0bd cb0b 063e
000003e0: 5b62 bebe e5b3 03be e098 d23d 21d5 0dbc
000003f0: e2b0 453e 76eb dc3d e4bf d93d 0c49 f2be
-0.084180266 -0.09222373 -0.12607577 -0.26695898 -0.26696357 -0.15888315 0.09326307 -0.038704537
-0.24764627 0.16057532 -0.10789649 -0.26117387 -0.04497197 0.00065531343 -0.039175093 0.03813114
0.11158159 0.062035706 -0.260037 -0.083664164 -0.31149447 -0.119149186 0.34172663 -0.22604655
-0.07036472 -0.31001833 -0.059687827 0.13396573 -0.14110667 0.04917185 0.1216375 0.051187914
-0.13858914 -0.017463053 0.092720546 -0.082428485 -0.0141942045 0.0530603 -0.45961234 0.1902653
-0.24176756 0.033414066 -0.23534472 -0.24696116 -0.08677136 -0.010732076 0.06334902 -0.16768609
-0.020018974 -0.14211054 -0.02786491 -0.002802354 -0.14288993 -0.112369195 -0.029208576 -0.13289551
0.047064867 -0.1261443 0.051087365 -0.057474837 -0.018464409 0.008519423 -0.08061851 -0.1374988
-0.060287703 -0.034710363 -0.086956926 0.045388795 0.18802188 0.26570222 -0.17641379 0.016265796
0.2235469 -0.24530315 0.07046322 0.0076388577 -0.11058869 0.034368593 -5.9604474e-05 0.100919
-0.11146348 -0.26198506 0.30696034 -0.20140643 -0.0806502 -0.3378803 -0.010520158 -0.15247548
0.134684 0.17342758 -0.061581288 0.0055092187 0.021178395 0.06263031 0.08749815 -0.2020414
0.1341755 0.020358633 -0.022359304 0.032191303 0.18945275 0.0026117428 -0.12963931 0.24200903
-0.088373974 0.013821139 -0.27049598 -0.3433987 0.0269128 -0.16638626 0.0078105805 0.093643375
0.14853372 -0.04103144 -0.055428166 0.16400224 -0.04007106 0.35352692 -0.013942139 -0.18932672
-0.19554117 0.02714939 -0.27656806 0.06324754 -0.06598623 0.11178787 -0.1764696 0.03691502
0.064041086 -0.23992498 -0.09874986 -0.0186806 0.19933687 0.0559624 0.0041068047 0.17536522
-0.24051629 -0.28814486 -0.17493765 0.12232092 0.1492871 0.15593155 0.023357658 -0.0067664725
0.09520385 -0.007214302 -0.13920972 0.22506206 0.067539506 -0.1788305 0.13203035 0.102673426
-0.18044788 -0.037562452 -0.09164922 -0.15290762 0.07618866 -0.30567718 -0.15093592 -0.06454715
0.10260956 -0.33144012 -0.21874693 -0.03855081 0.07651018 -0.07904273 -0.23537943 -0.0071370527
0.1864252 -0.2100322 -0.07101157 0.05245299 -0.13587922 -0.1456957 0.024063652 0.34817111
0.26789403 -0.13759978 0.022137724 0.050970443 -0.058686424 0.210925 -0.13521242 -0.17568386
-0.06914425 0.08585649 -0.16241792 0.04019295 -0.06767925 -0.33569178 0.10093608 -0.18509331
-0.20789276 -0.03274407 0.04866135 -0.083692335 0.1829326 -0.15067776 -0.15794039 -0.16517675
-0.178203 -0.3578234 0.13868189 -0.29540846 0.40381488 0.1756597 -0.30209133 -0.12235666
0.1271842 -0.0395396 -0.14004482 0.18725514 -0.22994585 0.12639351 0.028640332 -0.00015773487
-0.09958847 -0.071724534 0.18170276 -0.17345753 0.026798025 -0.0448425 -0.07422498 0.06618585
-0.1617155 -0.3087049 -0.24179067 -0.068054736 0.017958479 -0.010459445 -0.19297269 0.097237594
-0.07005933 -0.14529005 -0.21627861 -0.09823422 -0.019958198 0.03641098 -0.3927989 0.015297261
-0.088891014 0.18617766 -0.046443626 -0.2361786 -0.010271179 -0.1910788 -0.10173925 0.13090436
-0.37184414 -0.12861593 0.10283065 -0.008656771 0.19305757 0.10787098 0.10632303 -0.47321355

layers.1.weight f4 [10, 256]
00000000: 0754 17bf 1701 bdbe 8acd 0bbe c868 26bf
00000010: 901e 393e 0425 3abe 7155 b33e c8d4 0d3e
00000020: 7ebc acbe 24ba f63e 3c53 30bf a7e9 f3bc
00000030: f292 0c3e b023 62bd 6f1d 02bf 95bd ddbe
00000040: 5703 1ebd e3d0 903e 97ff 793e b2eb 903d
00000050: 16da 59bf dd57 1dbe b012 fb3e 35ee 9dbd
00000060: 694c ecbe 7c86 8d3d 9b71 8d3e 3e96 013f
00000070: 2b18 c1bc db21 c5be 0968 4bbd c81f 373e
00000080: f2db 1f3e e018 85be 2f15 f8be 24a4 28bf
00000090: 51d1 893e 5bc3 3dbc 3ead 06be 99f4 083f
000000a0: fd89 26bf 78b9 8c3e bbb0 0cbf ba06 f2be
000000b0: d2ff c1be c029 1fbd c029 8d3e b7a1 99be
000000c0: 2e87 873e 8b1d 113d eb1a 4abe 7c81 40bd
000000d0: 5e1e 14bf e71a 7dbe 5ef4 073f 6dad b8be
000000e0: 12f8 9abe cf17 33bf 3c95 313f 9413 703c
000000f0: 6b3b 70be 5dbd d33d 1303 453e 3f1f 57be
00000100: 316a 93bd 7412 c53e 78ec 0e3f 1fc9 1cbe
00000110: 2459 a73e 02a3 293e bdf8 19bf f240 bdbe
00000120: 017f 2c3f 7bbd 423e 2394 9a3e 0152 0b3e
00000130: 49d4 fc3d d769 05be fa24 0e3e 45a0 2cbd
00000140: 2190 e2be 08f9 a03e c32f b23e 277c f93e
00000150: cf55 13bf 5774 b0bd 9576 7a3e d4ed 97bd
00000160: 7779 0ebd 03d7 b53e 3ba9 c9be 01df 973e
00000170: dfe9 38bc 9656 9a3e a9e5 0f3e 275a 0bbf
00000180: ce24 ae3e 8b98 8c3e 42ee 9abe 1d64 533e
00000190: 7f43 2dbe 9a9d f53e a922 36bf b5dc c13d
000001a0: 94ae de3d 4ef5 ae3d d95f 11bf ff7b 1cbf
000001b0: beee 3c3e b253 bbbe e3d8 88bd 6cf6 1e3d
000001c0: 2c8c c6be 83b8 90be 486a 143e 48fd 58bf
000001d0: 336a c1be 7354 c43d 64e9 f9bc 28bd f8be
000001e0: 7a92 92be 668d e23c 5572 14bf beff 233f
000001f0: e4e8 debe a3c4 6b3e ed27 8a3e d0d6 343d
00000200: 6cb5 c33d 9866 eebe fb08 8fbd a579 90be
00000210: 0794 c3be 37c0 ee3d 65c4 cabe e38e 023f
00000220: 9b44 80be f8d7 fbbe 10b8 b6be 9a3f 5e3f
00000230: de3d 31be 1d2f 113c e96d 8f3e 49a5 99be
00000240: 78f6 2e3e 4554 5dbe 3425 f9bd de4e 073e
00000250: 6d6e 0cbe 5a44 13bf a670 dc3e fa16 173e
00000260: f8fe 9abe e54e 27be 20fd eebc 398d f23d
00000270: ae2c 1c3f 6e9b 4cbf b236 373e 6a39 eebc
00000280: 471f b03e 82cb 843d b356 233c eba9 af3e
00000290: 414b 75be 573a dbbd 981e a7be 663b 923e
000002a0: d6d0 ce3e bc66 9fbe 73c0 ccbd 8803 9b3e
000002b0: 7f47 89be c870 f23d 7ee7 05be 2fa0 c23d
000002c0: 802e 223d 3a7f b7bd 9f6e 16be 5a1d 99ba
000002d0: b690 053e e328 25be 6ebe 04bf 9fbf 3fbf
000002e0: 99f5 86be 3a76 323e ccb6 de3e b7f6 2f3e
000002f0: 06f1 de3d 33f2 033d d8ce f13e 2f32 8ebe
00000300: 4f97 91be 1e4d ff3e 5fcf 893e 1197 56bf
00000310: 31db ce3c 4438 bb3e 9064 2abd d551 a9be
00000320: 7857 f0be b851 09bf ff08 0e3e b36c b9bd
00000330: 0bb6 9b3d d382 193e 7731 163d 4a38 a63e
00000340: c13b 1fbe cb8b c43e b525 013f 8848 24be
00000350: ab7b 3bbf 0891 473e 9b96 663e 8d31 853d
00000360: 61de 9fbd ba85 b9bd 22d5 bf3e 1dce 77be
00000370: 4e5b aa3e 093f 82be 6e7a 94be 2340 d7be
00000380: 82b6 fbbe 4017 b6be 821b 16bf 3d94 163e
00000390: eea7 c23e 1011 263e eb3a 9dbe a47b 243d
000003a0: 9374 aabe 7da9 19bc f91d 103e 9593 5bbc
000003b0: 4675 ad3c 6bfb 363e 8881 8cbe dcc6 09bd
000003c0: 04ce b3be cc26 cbbe 1421 ddbd fde6 74bd
000003d0: 662e 953d ff66 41bf e0e5 d33e 21d4 f53e
000003e0: e9ac 093c afbc 093f db2a d8bc d3e1 a3bc
000003f0: 654b c13e dec0 b33d bbf3 4ebd 2a17 37bf
-0.5911259 -0.36914894 -0.13652626 -0.65003633 0.18078065 -0.18178183 0.35026124 0.13850701
-0.33737558 0.4818889 -0.68877006 -0.0297745 0.1372793 -0.055209816 -0.5082616 -0.43308702
-0.038577404 0.28284368 0.24413906 0.07076205 -0.850984 -0.15365548 0.49037695 -0.0771145
-0.46152046 0.069104165 0.27625737 0.50619876 -0.023571094 -0.38502392 -0.049659763 0.17883217
0.15611246 -0.2599554 -0.48453662 -0.6587546 0.26917508 -0.011582221 -0.13152024 0.53498226
-0.65054303 0.2748525 -0.5495717 -0.47270757 -0.37890488 -0.038858175 0.27570915 -0.3000619
0.2647032 0.035428565 -0.19736831 -0.046998486 -0.57858837 -0.24717294 0.5310725 -0.36069813
-0.30267388 -0.69958204 0.6936834 0.014653105 -0.23460166 0.103388526 0.19239454 -0.21008013
-0.07197989 0.3849064 0.5582957 -0.15311097 0.32685196 0.16566089 -0.6014517 -0.36963612
0.6738129 0.19017594 0.30191144 0.13605501 0.12345178 -0.13028656 0.13881293 -0.042145032
-0.44250587 0.31439996 0.34802064 0.48727533 -0.5755281 -0.0861594 0.24459298 -0.07418409
-0.034783807 0.35515603 -0.39386925 0.29662326 -0.011286228 0.30144185 0.14052452 -0.54434437
0.34012455 0.2746013 -0.302599 0.20643659 -0.16920279 0.47971803 -0.7114664 0.09465925
0.10873142 0.08542882 -0.56786877 -0.61126703 0.18450448 -0.36587292 -0.06681993 0.038809225
-0.38778818 -0.2826577 0.14493668 -0.84761477 -0.37776336 0.0958642 -0.030506797 -0.48581815
-0.28627378 0.027655315 -0.57986957 0.64062107 -0.43537056 0.2302423 0.26983586 0.044150174
0.09556088 -0.46562648 -0.06984135 -0.28217807 -0.38198873 0.11657756 -0.39602962 0.5099928
-0.25052342 -0.4918821 -0.35687304 0.868158 -0.17308757 0.00886133 0.28013542 -0.30008915
0.17086208 -0.21614178 -0.12165299 0.13213679 -0.13713999 -0.5752617 0.43054694 0.14754859
-0.3027265 -0.1633869 -0.029173434 0.11843342 0.61005676 -0.79924667 0.17891958 -0.029080112
0.34398863 0.064841285 0.009969401 0.34309325 -0.23954488 -0.10704487 -0.3264053 0.28560942
0.40393704 -0.31133068 -0.09997644 0.30276132 -0.2681236 0.118379176 -0.13076589 0.09503209
0.039595127 -0.089598134 -0.14690636 -0.0011681721 0.13043484 -0.16128878 -0.5185307 -0.74901766
-0.2635925 0.17427912 0.43498838 0.17183958 0.10885815 0.0322134 0.47228122 -0.27772662
-0.28435752 0.49863523 0.26916024 -0.8382426 0.025251003 0.36566365 -0.04159981 -0.33070245
-0.46941733 -0.5364032 0.13870619 -0.09053936 0.07603081 0.14991312 0.036668267 0.3246482
-0.15550138 0.38387904 0.5044816 -0.16043293 -0.7323558 0.19488919 0.22518389 0.06503592
-0.07806087 -0.090587094 0.37467295 -0.2419972 0.33272785 -0.25438717 -0.28999656 -0.4204112
-0.4916268 -0.35564613 -0.58635724 0.14704986 0.38018745 0.16217446 -0.30709013 0.040156975
-0.33292064 -0.009378788 0.14073934 -0.0134018855 0.021174084 0.17869346 -0.27442575 -0.033636913
-0.35118115 -0.39678037 -0.10797325 -0.0597906 0.072842404 -0.75547785 0.41386318 0.48013404
0.008403041 0.53803533 -0.026387623 -0.020005142 0.37752834 0.08777021 -0.05052541 -0.7151972

layers.1.bias f4 [10]
00000000: 1bfb fd3c 9a75 513c 88c0 d2bb 6494 a83c
00000010: 147c 833b b6dd 84bc 6329 fbba ab87 da3c
00000020: 19b0 14bd 1dd9 98bc
0.031003525 0.012784386 -0.006431643 0.02057857 0.004012594 -0.016219001 -0.0019162114 0.02667602
-0.036300752 -0.018658215
