model_weights/logreg_model_Pubmed.pth (torch, 530215 bytes, 4 tensors)

layers.0.weight f4 [256, 512]
000000 5c ba 1f 3d 6c 55 85 bc fc b2 7f 3c 8d 49 e9 3a
       0.038996086 -0.016276084 0.015606638 0.0017798409
000010 a1 b6 97 bc 5a 66 30 bc d2 d4 27 bd 8e 82 0f 3d
       -0.018519701 -0.01076659 -0.040974446 0.035036616
000020 08 3d a3 3c c4 80 97 3c 1c a1 8f bc c6 cd a0 3b
       0.019926563 0.018494017 -0.017532878 0.0049073426
000030 d0 85 1e bd 93 08 82 bc 31 80 ae bc 0e 4d fa bc
       -0.038701832 -0.01587323 -0.02130136 -0.03055432
000040 70 9d e5 bb d6 88 cc 3c bb 26 24 bc 2f 8f 04 3d
       -0.0070072934 0.024967592 -0.010019 0.032363113
000050 35 01 6e 3d b8 1d 1a 3c 87 09 3c bb 09 20 8c bc
       0.05810662 0.0094065 -0.0028692202 -0.01710512
000060 2d 59 89 bb 39 f3 5b bd 11 4a 84 bc e9 79 2e bc
       -0.004191539 -0.053698752 -0.016148599 -0.010649183
000070 99 1d 0d 3d b3 85 c5 3c f5 1f 2f 3d 24 d1 f2 bc
       0.034452055 0.024111604 0.042755086 -0.029640742
000080 0a a9 e0 3b 1a 0b 93 bc 72 f9 68 bc 8d 17 15 bd
       0.0068560885 -0.01794963 -0.014219629 -0.036399413
000090 34 3c e1 3b f0 f6 02 3d 79 75 09 3d 87 40 4e bb
       0.006873632 0.03197378 0.033559296 -0.0031471567
0000a0 dd f8 fd 3c da 40 82 3c d9 8e cc bc c3 ea 2b 3c
       0.031002456 0.015900064 -0.024970459 0.010492983
0000b0 0c 04 14 3c 50 63 e6 bc 20 a9 3b 3c 6a c4 82 bb
       0.009034168 -0.028123528 0.011453897 -0.0039906995
0000c0 1e 99 3a bc 21 97 0f bc db c8 99 bc ea 64 3c 3c
       -0.011389045 -0.008764059 -0.018772533 0.011498669
0000d0 e7 12 e1 3c 8b 00 62 3c b4 df d4 bc 05 49 b1 3b
       0.027474834 0.013794075 -0.025985576 0.005410316
0000e0 c5 55 b4 3b 5c 83 88 3c 87 1e 7d 3c 77 48 59 3b
       0.0055033886 0.0166642 0.015449173 0.0033154765
0000f0 ec 05 bf 38 50 95 06 3d ae 57 6a bc e9 58 80 3c
       9.108693e-05 0.03285724 -0.014303131 0.015667396
000100 57 f4 12 3c 20 cc a2 bc c1 92 83 bc 7f 2a 15 bc
       0.008969388 -0.019872725 -0.016061189 -0.00910437
000110 9d 47 2d 3c f6 06 b2 bb b3 63 b1 bc 31 58 be bc
       0.010576156 -0.0054329587 -0.021653986 -0.023235412
000120 fa b5 1a 3c a8 0c ec bc de 7c 81 3a 80 9e 17 3c
       0.009442801 -0.028814629 0.0009879132 0.009254098
000130 93 7d 11 bd 63 82 ea bc 40 83 e2 3c aa 33 0e 3c
       -0.035520148 -0.028626626 0.027650476 0.00867931
000140 fe d2 1d bc d2 7e 3b ba d7 27 7a bb 1b ab cf ba
       -0.009632824 -0.00071523816 -0.003817072 -0.001584384
000150 f2 b1 e4 3c 93 e0 a7 bc 9f 76 28 3d 8b 74 94 3c
       0.027916882 -0.020492828 0.04112875 0.018121978
000160 4f 80 de bc d8 d3 36 3c 89 7a ac 3b dc 74 45 3b
       -0.027160792 0.011158906 0.0052636308 0.0030129468
000170 01 0f 60 3c 31 97 aa 3c d0 c3 1b bc 54 98 01 3d
       0.013675452 0.020824047 -0.009507135 0.031639412
000180 95 73 af 3c 9e 32 e2 3c 7c 9b 3b 3d 38 9c 06 3a
       0.021417418 0.027612027 0.04580258 0.0005134973
000190 4c 6b 2a bc 11 05 82 3c c3 58 93 3c c1 0c a9 ba
       -0.010401558 0.015871556 0.01798666 -0.0012897478
0001a0 4d d7 11 bd 86 d6 e2 3b 96 b1 64 bc 36 c4 87 bc
       -0.035605717 0.006922546 -0.013958355 -0.016573053
0001b0 6b 09 09 bd 2b a4 c6 3a e4 85 1f 3c 72 64 ad bc
       -0.033456247 0.0015155127 0.009736512 -0.02116606
0001c0 80 8b e4 bc b4 cf bb 3c e8 68 80 bc 6f 6d 45 bc
       -0.02789855 0.022926189 -0.015675023 -0.012050017
0001d0 a2 62 49 3c 8c 22 d4 3c 88 2b 22 bc bb 78 d5 bc
       0.012291582 0.02589538 -0.009898074 -0.026058545
0001e0 b9 e0 5d 3c f3 f1 e7 bc 75 71 11 b9 88 9a 5c bd
       0.013542348 -0.028313613 -0.00013870544 -0.05385831
0001f0 81 b1 12 3d e8 74 db bb a0 d1 0e 3d a2 0a c9 3c
       0.035813812 -0.006697286 0.034867883 0.024541203
000200 27 00 3a 3d c1 58 2f bc ed 9c 26 bd 39 0a 93 3b
       0.0454103 -0.010702313 -0.040677 0.0044873026
000210 d7 31 14 3c fb 1b c8 3c 31 a2 c7 3c 23 39 81 3c
       0.009045086 0.024427405 0.024369331 0.015774315
000220 0c e4 1c bd ab ec 85 bd 5b 7c 27 bc a9 96 fb bb
       -0.03830342 -0.065392815 -0.01022252 -0.007677872
000230 b8 0c d8 bc 73 a3 b6 3c 1a d4 28 3c aa 07 c9 bc
       -0.026373252 0.022294736 0.010304475 -0.024539787
000240 0d 08 c3 3c 67 e9 2e bc 54 c7 ae bc 23 2a 36 3d
       0.02380755 -0.010675765 -0.021335281 0.04447378
000250 bb 3d bc 3a a2 57 65 bc 6d 38 9d 3c cf 38 87 b8
       0.0014361659 -0.013997944 0.019191945 -6.447883e-05
000260 7e 97 50 3c d3 28 2c bd c3 1d 03 bd cd a4 20 bd
       0.012731431 -0.04203112 -0.032010805 -0.039219666
000270 58 3f 14 bc 4f bd 24 bb ff 23 0a bb 29 e7 59 3d
       -0.009048305 -0.002513725 -0.0021078584 0.053198967
000280 cb d5 1b bd b1 1e 99 bc 26 df 8c bc f8 7f 03 3c
       -0.038045686 -0.018691393 -0.01719625 0.008026116
000290 b2 29 99 3c d3 d8 90 bc 79 8d bc bc b6 95 0c bd
       0.01869664 -0.017681515 -0.023016678 -0.034322463
0002a0 b7 8f 83 3b 2f 47 14 3d 12 c7 19 bc 53 70 02 bd
       0.004014935 0.0362007 -0.009385841 -0.031845402
0002b0 84 c4 c7 3c 3c 5d 10 bc 62 48 84 3c c6 7a cc bc
       0.024385698 -0.008811291 0.016147796 -0.024960887
0002c0 66 ba cd bc 50 7e 87 3c 66 4f f2 3a 68 6a eb 3b
       -0.025113296 0.016539723 0.0018486797 0.0071843155
0002d0 d9 e8 cb 3c 5f fb 3c bc a4 de 1a 3c 2d 9f 8d bc
       0.024891304 -0.011534541 0.009452496 -0.017287815
0002e0 41 f3 9e bc 46 a6 ce bc ff f1 09 bd 3b 73 8a 3c
       -0.019403102 -0.02522577 -0.03367805 0.01690065
0002f0 35 72 24 bc da 4d 40 3c 8d e9 a0 ba 6d 29 c5 bc
       -0.010036995 0.011737311 -0.0012276635 -0.024067605
000300 48 81 cc bc 8d d7 fc bc bb c0 63 bd 57 75 bb bc
       -0.02496399 -0.030864501 -0.055603724 -0.0228831
000310 e3 67 13 3c f4 3b 24 bc ec cf 33 bd 88 2a 1f bc
       0.0089969365 -0.01002406 -0.04389946 -0.00971473
000320 12 8a b1 bc aa 0a 1a bb 15 94 23 bc 05 fe e3 3c
       -0.021672282 -0.0023504891 -0.009984036 0.027831087
000330 b5 94 ca 3c 9e 11 af 3c 77 d6 1b bc 87 55 48 bd
       0.024729112 0.021370705 -0.009511582 -0.04890969
000340 53 ff 10 bc 6d 99 c5 3a 8d 25 f6 bc 79 90 b1 bc
       -0.008849937 0.0015075632 -0.030047202 -0.021675335
000350 c8 86 7c bb fa 39 17 3c a7 c9 39 bd e6 19 36 3d
       -0.0038532484 0.009230131 -0.045358326 0.044458292
000360 0f ec ab 3b b9 e1 48 bd 87 72 03 bd 1a 7c a4 ba
       0.0052466462 -0.04904339 -0.032091644 -0.0012549192
000370 ad 32 09 bd a5 7e 2a bd a0 03 46 bd ca fd ff 3b
       -0.033495594 -0.041624684 -0.0483433 0.0078122364
000380 85 66 ed bc 9e 5e b8 bc 29 d0 45 3d e2 e3 1e 3d
       -0.02897955 -0.022506054 0.04829422 0.038791545
000390 37 3c b1 bb 21 d1 d4 bc e6 9c 9f 3c eb ed 8f 3c
       -0.0054087895 -0.025978627 0.019483995 0.017569503
0003a0 fe cc 21 3c c5 7b 43 3c 15 7f b3 bc 1b 7d 14 3d
       0.009875534 0.011931364 -0.021911183 0.036252122
0003b0 fa ea 51 bb 38 47 41 bc 10 9d 61 3c f7 d7 e9 3b
       -0.0032030926 -0.011796765 0.013770357 0.0071363407
0003c0 be be 82 bb 73 70 a8 3b 5e 57 00 3d df 6b 40 3c
       -0.0039900234 0.005140358 0.03133332 0.0117444685
0003d0 89 08 16 bc f9 f4 ab 3c 02 59 12 3c bc 63 85 bc
       -0.009157308 0.020990836 0.008932354 -0.016282909
0003e0 dc 80 55 3d b8 11 06 3c 88 9e c8 bc f3 71 89 bc
       0.052124843 0.008182935 -0.024489656 -0.016777968
0003f0 51 5c f9 bc 76 bc d0 ba 24 23 ba 3c 56 6a 0e 3c
       -0.030439528 -0.0015925306 0.022721834 0.008692345

layers.0.bias f4 [256]
000000 70 b8 e2 bd 18 26 5b 3d f2 a1 18 3e 97 a5 5b be
       -0.11070335 0.053503126 0.14905527 -0.21449886
000010 c6 63 88 bd ab 2d 0f 3e 70 f7 82 bd 50 0a 84 3d
       -0.06659655 0.13982265 -0.06394851 0.064472795
000020 15 24 c6 be 29 85 91 bd ab 28 00 be 3e 25 96 bd
       -0.38699403 -0.071054764 -0.12515514 -0.07331322
000030 52 96 4a bd 2d af 83 3c 97 5c 48 bd f3 f3 11 bd
       -0.049459763 0.016074741 -0.048916426 -0.03563304
000040 5c f2 7c 3d 28 5b fb bd 36 3c f9 bd dd fd 8a 3e
       0.06175457 -0.12273246 -0.121696874 0.27146807
000050 a6 40 30 3e 8a fe 83 bd 1e 87 a7 bc ed 7a 8a bd
       0.17212161 -0.06445034 -0.020450171 -0.067617275
000060 56 00 45 bd 0f ff 93 bd 3f fa 9c 3d 60 f1 57 bd
       -0.048096023 -0.07226383 0.07664918 -0.052720428
000070 a2 bb 72 3b 0b 2a 41 be 2a c8 b7 bc 7c b6 e9 bd
       0.0037038107 -0.18863694 -0.022434313 -0.11411759
000080 7c 5b d2 3b 94 24 2c 3c b6 88 a3 bd dd 6a 94 3c
       0.006419597 0.010506768 -0.0798506 0.018117363
000090 f7 2f ab be 2b 39 7d bd 1f de 79 3b 16 52 a9 bc
       -0.33435032 -0.061822098 0.003812678 -0.020669024
0000a0 c6 98 de 3d 40 47 11 bd 70 a0 32 3e d1 f3 5b 3e
       0.10868983 -0.03546834 0.17444015 0.21479727
0000b0 c4 46 c2 bc 56 3f 98 bc 5f 5b 17 bc ef 60 0a bc
       -0.023715384 -0.018584888 -0.009238093 -0.008445962
0000c0 b6 27 fc 3d c0 67 8a bd 95 0f 41 3d fa 41 2d 3c
       0.12312262 -0.0675807 0.047134 0.010574812
0000d0 4f 22 b6 be 67 38 4c bd d9 e8 b2 bc 6a 78 63 3d
       -0.3557305 -0.049858477 -0.021839546 0.055534758
0000e0 39 6b a2 bc d3 a8 d8 bd 4e 9a 86 be d6 3f a6 be
       -0.019826518 -0.10579076 -0.262896 -0.32470578
0000f0 f2 1e ea 3d d0 b3 0f bc f1 15 07 be 95 96 22 3c
       0.114316836 -0.008770898 -0.13191964 0.009923597
000100 b7 69 aa bc 58 8b 2d bd 5a 16 36 bc b4 07 ac bd
       -0.020802362 -0.042369217 -0.011113727 -0.08399907
000110 dc 50 13 bc b3 cf 6f bd 13 a5 cc bd 11 7e 25 bd
       -0.008991446 -0.058547687 -0.09992423 -0.04040343
000120 ea 5f ca 3b 17 f3 e3 bd ad 31 cd 3a 37 39 44 bc
       0.0061759846 -0.1113035 0.0015655063 -0.011976532
000130 45 c0 a9 bc 1e ea 27 be b9 09 1c 3d 54 6e 33 3d
       -0.020721564 -0.16397902 0.03809521 0.04380639
000140 a7 c0 c1 be 05 23 a6 bc 82 28 59 be 0f eb 7c 3e
       -0.37842295 -0.02028037 -0.21206859 0.24699043
000150 24 70 ba bd d8 f1 ad bc 8a 7c 1d 3e b8 01 9b be
       -0.091034204 -0.021233484 0.15379539 -0.3027475
000160 c0 8f bc 3d 0e fd a9 bd 7e 59 14 bd f8 ac 80 3c
       0.09207106 -0.083002195 -0.03621816 0.015707478
000170 0b 74 fb bd 96 f5 61 3d 47 02 75 bc a9 39 f0 bd
       -0.12277993 0.05516585 -0.014954156 -0.11729748
000180 10 84 ce 3c b2 a5 84 be 50 97 a4 bc 78 97 45 be
       0.025209457 -0.25907665 -0.020091683 -0.19296062
000190 42 ab df 3c f6 b5 78 bd 90 15 24 bd 31 97 90 bd
       0.027303342 -0.060720406 -0.040059626 -0.070600875
0001a0 66 53 00 3d ef 09 7b 3e 6b b2 d8 3d 7c 00 a4 bc
       0.031329535 0.24515508 0.105809055 -0.020019762
0001b0 90 0d 08 bd 15 80 51 3d b8 dd 0b 3e b7 42 8b 3d
       -0.03321606 0.05114754 0.13658798 0.06799834
0001c0 2e 49 8e bd f1 e0 95 3d 2e e5 4d bd 0d bc a0 bc
       -0.06947552 0.07318295 -0.05026739 -0.01962092
0001d0 4f 2c e8 bd 53 91 86 be 45 da 91 bd 5e 2b a2 bd
       -0.11336576 -0.2628275 -0.0712171 -0.07918428
0001e0 8c 56 c6 bd 2c ea b9 bb 1e 8e 4c bd fa 27 aa bc
       -0.09684476 -0.0056736674 -0.04994022 -0.020771015
0001f0 2a 46 e5 bd 80 e4 b9 bd 19 a3 95 be 6a f7 a1 bc
       -0.11195023 -0.09076786 -0.29225996 -0.019771297
000200 47 b5 7e be fe 83 a3 bc 1a c7 8d be 8c 5e a3 bc
       -0.2487384 -0.0199604 -0.27690965 -0.019942544
000210 4e d8 0c bd df 2f 85 3c 46 ce 5d be e1 af a1 bc
       -0.03438597 0.016258178 -0.21660718 -0.019737186
000220 19 75 da bd c1 76 a0 bc 6e d0 80 be a8 6f dd 3c
       -0.10666866 -0.019587876 -0.2515902 0.02703078
000230 2b c4 d6 bd c6 97 c6 bc e5 56 5e be a6 96 d8 bc
       -0.10486635 -0.024242293 -0.21712835 -0.026439022
000240 ac ce 08 bd f2 fe 05 3e 1f 2b dd bd da 91 84 3d
       -0.033400223 0.13085535 -0.1079924 0.064731315
000250 6a 29 ce bd 2d 92 b5 bc e4 30 a4 be 1d a7 e1 bc
       -0.10066493 -0.022164429 -0.3206855 -0.027545506
000260 54 92 87 bc aa f3 6b bd c9 2d b9 bd 2e bb a0 bc
       -0.016549267 -0.057605423 -0.09041936 -0.019620504
000270 ed ae 3c bd ef 06 9c bc ef aa 68 bc 8e 3b b4 bc
       -0.04606526 -0.019046275 -0.01420091 -0.022001054
000280 08 50 9c bd b9 f9 02 3d 6f a6 45 bc 14 4b b9 bd
       -0.07632452 0.031976435 -0.012063607 -0.09047523
000290 ee d8 13 bd 96 c1 26 be c7 bc 97 be ef 4c 92 3d
       -0.036095552 -0.16284785 -0.29636213 0.0714358
0002a0 a5 e1 30 3e 92 90 a5 bc df 99 f2 3c 6f 9b 0c bc
       0.17273577 -0.020210538 0.029614387 -0.00858198
0002b0 55 f6 e9 3d 39 53 5f bd 58 27 62 bb c7 41 38 bc
       0.11423937 -0.054522727 -0.0034508314 -0.011246151
0002c0 c6 d4 0b 3e 72 49 50 3e 35 ac 42 3d 28 59 fa 3c
       0.13655385 0.20340517 0.04752751 0.030560091
0002d0 e0 5f 6b bd 8e 97 9f bc d2 0d 1c 3c 22 22 b1 bd
       -0.05746448 -0.019481447 0.009524779 -0.086490884
0002e0 9b ef c3 bc ce 34 98 3d 9c a5 15 bd 75 5e ed 3d
       -0.023917964 0.07431947 -0.03653489 0.11590282
0002f0 fb 0c f4 bc 78 ed 31 be 13 ac e7 3c 91 18 a8 bc
       -0.029791346 -0.17375743 0.028280294 -0.020519527
000300 13 ac a3 bc a5 fd f3 bd c9 d8 85 bd 65 f1 00 be
       -0.019979512 -0.11913613 -0.06535489 -0.12592085
000310 78 03 d2 3c d2 ad 74 be d1 a3 84 bd bb d4 b8 bc
       0.02563642 -0.23894432 -0.06476558 -0.022562375
000320 51 a0 e9 bd 1d 6c f1 ba 5e 9c 44 bd 0e f1 2d be
       -0.11407531 -0.0018419061 -0.048000686 -0.16986486
000330 5d 12 91 3e 29 1a a1 bc 52 d4 a7 bc 28 7d d8 3c
       0.28334323 -0.019665794 -0.020486984 0.026426867
000340 0c 65 10 3d 36 ba 63 3e cf cc 35 bd cb 62 20 be
       0.035252616 0.22239003 -0.044384774 -0.15662687
000350 3a d7 81 bc f8 ce 98 bc 82 68 84 bd 67 13 f6 bd
       -0.015849698 -0.018653378 -0.06465246 -0.120154195
000360 1c 92 9b bc 5f d0 d8 bc 03 14 08 bd d0 74 4a bd
       -0.018990569 -0.026466547 -0.03322221 -0.049427807
000370 79 3c 13 be 24 80 ef bd ff cd a6 3d af 78 33 3e
       -0.14378537 -0.11694363 0.081447594 0.17526506
000380 1f 4c 03 bd 3d 28 3f 3e c2 45 93 3c 18 c9 43 3d
       -0.032055017 0.18667693 0.017977599 0.0477992
000390 a9 ea 9e bd d1 74 09 be 05 27 b0 bc 91 ed 9c be
       -0.077596016 -0.13423468 -0.021502981 -0.3065
0003a0 47 3d 9e bc 38 bf 2d bb 81 35 cb 3d a7 94 79 bd
       -0.019316329 -0.002651168 0.099223144 -0.06093278
0003b0 5f 38 95 bd 34 c8 71 bd 6e 79 b2 bd 35 e0 49 3e
       -0.072861426 -0.05902882 -0.08714567 0.19714434
0003c0 48 39 87 bc 7c 43 51 be 34 1c 3b bc 1c 7d a2 bc
       -0.016506806 -0.204359 -0.011420298 -0.019835047
0003d0 37 5e e0 bc 77 13 98 3d 4c 65 79 bd 59 aa a0 bc
       -0.027388675 0.074255876 -0.06088762 -0.019612478
0003e0 6c 9f 71 bd bc fe b5 3b c6 34 92 bc 6b c8 2b 3d
       -0.058989927 0.0055540483 -0.01784743 0.04193918
0003f0 1b 85 1e be 30 b6 f1 bc 93 11 ab bc c1 b3 a7 bc
       -0.15480463 -0.02950582 -0.020882403 -0.020471456

layers.1.weight f4 [3, 256]
000000 f1 c3 a7 3d fa 78 07 3e 82 bf 22 3f 53 ae 31 3f
       0.0819167 0.13229743 0.6357347 0.6940662
000010 e4 25 50 bf a2 10 93 bf f4 36 57 3e 16 4b 1c bf
       -0.81307817 -1.1489451 0.21017057 -0.6105207
000020 8f 57 1e bf 78 47 35 bf 51 34 aa 3e 6f 6d e5 3e
       -0.61852354 -0.7081218 0.3324304 0.44810054
000030 38 5f 41 3f 06 55 95 be ea 9a 1b bf ad 12 62 3e
       0.7553592 -0.2916643 -0.60783255 0.22077437
000040 af f7 2c bf e3 88 e7 3e 7d b3 0d bf 89 71 6c 3e
       -0.67565435 0.45221624 -0.55352 0.23090185
000050 c2 5d 07 bf 59 fa 8d be 80 30 e4 ba 23 15 74 3e
       -0.5287744 -0.27730063 -0.0017409474 0.23836188
000060 b5 59 16 3e a7 23 a0 3e fc e2 55 bf b4 07 bb 3e
       0.14682658 0.312772 -0.83549476 0.36529315
000070 d4 59 47 bf 1c 41 a4 be 75 b5 21 bc b4 7e 18 3f
       -0.7787144 -0.32080925 -0.009869923 0.59568334
000080 55 cf 2e bf e5 27 36 3f 97 bf ad 3e da 1b 76 3e
       -0.68285114 0.71154624 0.33935234 0.24034062
000090 8f da 7d be d5 63 1b 3f d1 3d 57 bf a7 f1 01 bb
       -0.24790405 0.60699207 -0.840787 -0.0019827874
0000a0 84 ea 73 3e a6 32 6e ba 67 45 89 bf 24 54 ed 3d
       0.2381993 -0.00090865267 -1.0724305 0.11588314
0000b0 1a be 4a bf a4 b1 be 39 09 c4 0c bf d9 2c 38 be
       -0.7919632 0.00036371977 -0.54986626 -0.17985858
0000c0 4a 45 03 bf 40 1a 3e 3f 67 66 57 3d 3f 9c cf 3e
       -0.512776 0.74258804 0.052587893 0.40548894
0000d0 20 48 e0 bd b0 2d 0c bf 95 24 46 bb 24 40 a9 be
       -0.10951257 -0.54757214 -0.0030234207 -0.33056748
0000e0 34 23 1a bb b1 39 d6 be f7 b1 47 3f 37 85 aa 3e
       -0.0023519518 -0.4184089 0.7800593 0.3330476
0000f0 c1 c4 8d 3e 88 f5 d5 3d 9d 61 fd 3e 84 cb a4 be
       0.27689174 0.10447222 0.49488536 -0.3218652
000100 b0 63 36 bb 8b e4 b5 be 14 00 c3 be a8 f9 12 bf
       -0.0027830414 -0.35525927 -0.38085997 -0.57412195
000110 57 53 8f 3e 1c aa 3f 3f 34 a1 0f bf 6a 83 9a 3e
       0.2799327 0.7486894 -0.5610535 0.30178386
000120 1e 58 c8 3e a0 c9 02 3f 16 91 18 3f fc a7 18 3d
       0.39129728 0.51088905 0.59596384 0.037269577
000130 c6 8a 82 3b 79 e7 a5 bd 01 cc 0d bf eb bf 52 3e
       0.0039838282 -0.081007905 -0.5538941 0.20581023
000140 46 f6 bc be 4b d8 1a 3b a4 80 20 bf c9 db ad 3e
       -0.36906642 0.0023627456 -0.6269629 0.33956745
000150 95 87 b8 be 24 51 1a bb 92 16 a5 be c5 b2 ad be
       -0.3604094 -0.0023546899 -0.32243782 -0.33925453
000160 cf 7a d5 be f9 08 9b 3e 27 c1 c5 be 72 8f 50 bf
       -0.41695258 0.30280283 -0.38623926 -0.8146888
000170 3e 00 80 be 1b d6 14 bf df 6f e8 3d a7 d5 dd 3e
       -0.25000185 -0.581392 0.11349463 0.43327066
000180 f1 89 26 3f c6 9b a7 3d 6a 64 c5 ba 7b 4e 1b 3f
       0.6505423 0.08184008 -0.0015059833 0.60666627
000190 1e d9 9a be 35 b7 58 bf 14 ca bc 3e 54 84 98 be
       -0.30243772 -0.8465455 0.36872923 -0.29788458
0001a0 c9 61 21 bf 18 5c 8c be f9 f9 30 3e 6a 79 12 bb
       -0.63039833 -0.27414012 0.17282857 -0.00223502
0001b0 d5 1a 68 3e a4 d5 10 bf 67 de 40 bf 65 fa 8c be
       0.22666486 -0.5657599 -0.7533936 -0.27534786
0001c0 1a c6 1d 3f 88 53 fa 3d 54 4e 79 be ec 1d f8 37
       0.61630404 0.122229636 -0.24346286 2.9577837e-05
0001d0 45 31 b3 3e 64 0b 7b 3f 08 64 0a bf 09 34 cb bd
       0.34998527 0.98064256 -0.54058886 -0.09922034
0001e0 27 56 cd 3e 70 e0 ea ba 94 69 0c 3f 37 6d d8 ba
       0.40104792 -0.0017919671 0.548486 -0.0016512041
0001f0 a5 56 2a 3f cf 5c f9 3e 97 b5 d7 3e 98 e7 b8 ba
       0.6653846 0.4870362 0.4213073 -0.0014107106
000200 20 b8 3e 3e bf 38 8c ba 66 50 ef be f4 a3 b7 ba
       0.18624926 -0.0010698064 -0.46741027 -0.0014010654
000210 d6 2e 2c bf 69 33 ef be a3 de 14 3f bd 55 0c bb
       -0.67258966 -0.4671891 0.58152217 -0.0021413409
000220 bb 67 08 3f ec dd a1 39 8b d4 87 3d c4 e9 04 bf
       0.5328328 0.00030873658 0.06632336 -0.519192
000230 51 9f 17 bf f4 88 74 3b 8f 50 16 bf 3e 15 39 3f
       -0.5922747 0.0037313076 -0.5871667 0.7229804
000240 cb 25 34 bf d4 ba c4 3e d6 2e d6 be 84 cb 66 bf
       -0.7037017 0.3842379 -0.41832608 -0.9015429
000250 d6 1c ab 3e 16 25 36 bb 4b 87 0c 3f 39 b6 b8 3e
       0.33420438 -0.00277931 0.5489394 0.36076525
000260 26 0b 06 bf 45 43 1d 3e c4 70 35 be 01 78 03 bb
       -0.5236076 0.15357693 -0.17718798 -0.0020060542
000270 6b fd 79 3e 3c 8a cc ba ab c4 91 3e 1b c1 39 bb
       0.24413078 -0.0015605162 0.28470358 -0.002834386
000280 10 4c 2b bf 3b 40 2f 3f f8 3b 11 be 35 86 da 3d
       -0.6691294 0.6845738 -0.14183033 0.10670129
000290 e4 cc 34 bf 25 95 11 3f 30 8f a3 be e9 0a f8 be
       -0.7062514 0.568682 -0.3194518 -0.48445824
0002a0 18 dd a7 be 6b 96 ab ba e3 f7 0c bf 6f 51 b7 bb
       -0.3278587 -0.0013091093 -0.55065745 -0.0055944244
0002b0 b1 60 3a bf fd 48 d0 be 74 1e 0b 3f 58 bc 6e be
       -0.7280379 -0.40680686 0.5434334 -0.23314035
0002c0 40 72 9e be 32 22 b7 3e a0 f3 73 bf df a1 33 bf
       -0.3094654 0.35768276 -0.9529362 -0.7016887
0002d0 0f 97 20 3f 6d 16 62 ba af 7c 01 bf ea 80 ba be
       0.627305 -0.00086245575 -0.5058088 -0.3642648
0002e0 af 67 4f 3f 31 97 53 bf 44 0f 92 bd 2c a6 0e bf
       0.81017584 -0.82652575 -0.07131818 -0.5572231
0002f0 a0 40 be 3e 35 5e 77 3e 54 4c 44 bf c5 f4 bc ba
       0.3715868 0.24157031 -0.7667897 -0.0014416209
000300 77 06 90 ba d4 a5 2a 3f cb d6 dd be fe 0d 4e 3f
       -0.0010988255 0.66659284 -0.43327937 0.804901
000310 c7 90 b4 be 8a cf 8c 3e 35 57 44 3f bb e3 4f bb
       -0.35266706 0.2750209 0.7669557 -0.0031721431
000320 5c 54 bd 3e d6 3f bd be 9d 51 51 3f 30 d2 98 bd
       0.36978424 -0.36962765 0.81765157 -0.07461965
000330 ad 7b 4f bf 86 09 11 bb 39 b2 ff ba 3c 3e 9e be
       -0.8104809 -0.002213092 -0.001950807 -0.30906856
000340 33 e1 c9 be df 59 87 be 2c 16 88 3d 8e 89 dc be
       -0.39429626 -0.26435754 0.06644854 -0.43073696
000350 60 f0 87 bd a6 58 68 3d ba db ca 3e a7 4e 8d 3e
       -0.06637645 0.056725167 0.39620763 0.2759907
000360 02 e5 67 b9 2f 77 3c bf 19 8b a2 3e 5d 47 de 3d
       -0.00022115189 -0.7361936 0.31746748 0.10853455
000370 ed c5 fc bb 21 5d fb be fc 21 dd be e5 0c 42 bf
       -0.0077140243 -0.4909449 -0.4318999 -0.75800925
000380 a3 3c d7 be fb 82 1a bf 10 9d 77 be 5e b8 49 bf
       -0.4203845 -0.6035611 -0.24181008 -0.78796947
000390 e3 5a 6f 3e aa 15 13 3f 11 4f fc 3e 9b 03 b7 3e
       0.23374514 0.5745493 0.49279073 0.35744938
0003a0 5f f8 bb b9 4e f7 92 bc 15 e7 08 bf 85 49 ce be
       -0.0003585247 -0.01794019 -0.53477603 -0.40290466
0003b0 04 9b f8 3e 32 19 24 3f 5d ba 09 3f 3f cb 35 bf
       0.48555768 0.64100945 0.5379999 -0.71013254
0003c0 ae 3c d3 3d 83 3d 65 3f 52 79 19 3f 29 c7 cc ba
       0.10314308 0.89546984 0.59950745 -0.0015623319
0003d0 6a 0a 48 3f 13 00 1f be 8e 85 cc be 01 55 ac ba
       0.7814089 -0.15527372 -0.39945644 -0.0013147892
0003e0 a6 2d 15 bf 48 6f 50 bf 61 27 71 3e 3b 69 16 3f
       -0.5827278 -0.814198 0.23550178 0.5875432
0003f0 c0 ab f6 3e 25 6b 0e bf 18 7c 0e bd ab e6 ad be
       0.4817791 -0.5563224 -0.034786314 -0.33965048

layers.1.bias f4 [3]
000000 af 0c 02 bb 1f ce 26 bd 9f bf 0c bd
       -0.0019843986 -0.040723916 -0.03436243
