model_weights/logreg_model_Citeseer.pth (torch, 533299 bytes, 4 tensors)

layers.0.weight f4 [256, 512]
000000 30 a6 0c 3c b4 87 bc 39 bd 40 d1 bb 60 5e ec bb
       0.008584544 0.0003595926 -0.006385891 -0.007213399
000010 69 0a 68 bc 3a fc ea bb ae 85 91 3a af af 8f bc
       -0.014162638 -0.007171181 0.0011102462 -0.017539827
000020 d8 14 88 3c 62 a7 f4 bb a9 ab 4d bc 2b 53 78 3c
       0.016611502 -0.0074662426 -0.012553134 0.015156548
000030 11 89 e1 bb 0d ae bb 3b 57 c4 3a bc fb eb 4a 3c
       -0.0068827947 0.0057275356 -0.01139935 0.012385364
000040 ab 6e 22 bc 1c e5 1c bb 56 1a 07 bb 9c 62 d8 3b
       -0.009914081 -0.002394027 -0.0020615063 0.006603552
000050 5f f7 f0 39 3f 7f d0 3a 93 99 91 3b 38 56 e7 bb
       0.00045960673 0.0015907063 0.0044433563 -0.0070598386
000060 af 01 3e bc 32 3c 41 3c e9 b7 2e 3a e9 17 2e 3c
       -0.011597081 0.011794137 0.0006664978 0.010625818
000070 a9 83 1a bc 5d 63 18 bc 67 ed a5 bb 24 bb b1 3b
       -0.009430804 -0.009301034 -0.005063701 0.00542392
000080 34 27 d3 bc c9 47 b0 39 aa b4 80 bb 76 0e 38 3b
       -0.02577553 0.0003362282 -0.003927787 0.0028084791
000090 fd 13 8d 3b 43 5a 5f bb 2e 76 4b ba 66 24 8a 3a
       0.0043053613 -0.00340809 -0.00077614456 0.0010539412
0000a0 e1 2b 05 3c 60 5b a4 bc ee 58 a3 3b f4 26 11 bc
       0.008128137 -0.020063102 0.0049849665 -0.008859385
0000b0 3e 30 85 bc 35 fe 22 ba a6 b9 92 bc 9f ea 97 bc
       -0.016258355 -0.00062176894 -0.01791079 -0.018544493
0000c0 a5 00 f5 3b 08 72 70 bb 8f db c1 3a 96 2c 3c 3c
       0.0074768835 -0.0036689062 0.0014790165 0.0114852395
0000d0 3b af 12 3b 0a 93 49 3a 1e 8d 82 bc 3b dd 07 ba
       0.0022382278 0.0007689452 -0.01593643 -0.0005182807
0000e0 1f 7c b6 bb c9 8c 4c bb 6b a0 03 3c 54 93 fc bb
       -0.0055689956 -0.0031211844 0.008033852 -0.0077079926
0000f0 69 f1 11 bb 3d db 0e 3c a1 5a 4d 3c 3a 7d cb 3b
       -0.0022269136 0.008719263 0.012533815 0.0062099965
000100 01 b5 c9 bb e2 4f 7f 3b 4f c0 0a 3b d3 11 8d bb
       -0.0061556106 0.0038957526 0.0021171754 -0.0043051033
000110 83 ea cf 3b 13 8c 65 bc e4 83 f6 bb 8f 8c 12 3c
       0.0063450946 -0.014010447 -0.007523047 0.008944645
000120 48 1c cd 3b 71 f0 20 bc f9 7f cd bb 06 9f 6b bc
       0.006259475 -0.009822951 -0.006271359 -0.014381176
000130 4e 1f 2e 3c 27 1c 0b ba 09 01 6f bb 53 db 8c 39
       0.010627581 -0.0005306624 -0.0036469123 0.0002686629
000140 40 5f 11 bc 5f 78 1a 3a 05 98 51 bc 37 78 c7 ba
       -0.008872807 0.00058925705 -0.012792592 -0.0015218322
000150 d2 19 c5 3b d1 3e a1 ba b3 cc 32 bc e5 1f 64 3a
       0.006015041 -0.0012302046 -0.010913062 0.00087022624
000160 3c 8b 0c bc 1b 7b 2a 3b 55 f4 4d ba f2 b8 3f 3c
       -0.008578118 0.0026013318 -0.00078565377 0.011701809
000170 fd 9d 72 3c a6 90 3e bc de bc 4d 3c 03 9d 6a bb
       0.014808175 -0.011631167 0.0125572365 -0.0035799153
000180 c3 31 7d bb 8b a8 23 bc 0a bb 2d bc 1e d1 45 bc
       -0.0038634397 -0.009988914 -0.010603676 -0.012073783
000190 b0 4e 02 bb a3 3f 41 bb 1f b8 86 bb 3d 09 b4 3b
       -0.0019883327 -0.0029487393 -0.0041113044 0.0054942654
0001a0 5b 4c b7 3a 1f 8a 4b bc a1 4f f5 bb d8 14 50 bc
       0.0013984548 -0.012423067 -0.007486299 -0.012700282
0001b0 a5 22 46 bb 9f be 97 3c 05 04 83 ba e2 d7 bb bb
       -0.0030233052 0.018523512 -0.0009995705 -0.0057325223
0001c0 43 a6 8d 3b 13 67 61 bc 13 c8 50 bb e5 46 41 3b
       0.0043227985 -0.013757485 -0.0031857535 0.002949172
0001d0 74 1e e4 3b 23 86 88 bb 59 6d c1 39 c7 7c ac bc
       0.006961638 -0.004166381 0.000368933 -0.021055592
0001e0 46 1e bb 3a 5c d0 81 3c ea b3 05 3b 50 ba b3 bc
       0.001427599 0.015846424 0.0020401427 -0.021939427
0001f0 7b ce 63 3c d8 c3 af bb c0 b9 83 bb cd a6 e9 3b
       0.013904209 -0.0053639226 -0.004019946 0.00713048
000200 f1 4f 2d bb 1e 9b 32 3c da a6 ac 3b 16 00 33 bc
       -0.0026445354 0.010901241 0.0052689137 -0.010925313
000210 5c 5f d2 3b 05 85 fb ba 0d b2 e3 bc a3 11 33 ba
       0.006420059 -0.0019189423 -0.027794862 -0.0006830936
000220 78 35 1e 3c 77 c4 a8 3b 21 38 75 bc 16 00 16 bc
       0.009656303 0.0051503736 -0.014966995 -0.009155294
000230 82 a8 8d 3a 57 2e 1c 3c f2 79 09 3c 09 1d bb b9
       0.0010807666 0.009532533 0.00839089 -0.00035689052
000240 71 bf e1 bb fa c1 8e ba 88 2e 99 bb 5f d9 c3 ba
       -0.0068892767 -0.001089155 -0.0046747364 -0.0014942101
000250 c2 04 74 bc 95 9a cd 3b 85 ab 96 bc d0 70 8f bb
       -0.0148937125 0.006274531 -0.018392334 -0.004377462
000260 be a9 f6 3b dc 07 a3 3c d9 7a 89 3c f3 11 64 bc
       0.007527559 0.019901209 0.016782211 -0.013920295
000270 d9 fc 90 3b 22 1c 27 ba a0 14 3e bc 81 c0 66 3a
       0.004424673 -0.00063747365 -0.011601597 0.0008802489
000280 41 92 b2 bb 42 9d a9 bc 9e ec 68 bc 57 f3 89 3c
       -0.0054495637 -0.02070487 -0.01421657 0.016839666
000290 c4 e7 42 bc b2 ee 10 3c b7 9a e4 bb eb 88 06 3c
       -0.011896078 0.008845972 -0.0069764513 0.008211355
0002a0 bf 9c 87 3c 79 38 62 bc 67 b8 5c 3b 7d 28 1a 3c
       0.016554235 -0.013807409 0.0033679248 0.009409067
0002b0 64 4c b7 3c 24 0a e5 3b bd 92 49 3c 97 7c ac 3b
       0.022375293 0.0069897342 0.012303052 0.0052638757
0002c0 d6 83 df 3b c6 8e 8a bc 80 f6 d1 3b 1c fe 4f bc
       0.006821136 -0.016913783 0.006407559 -0.012694862
0002d0 49 24 42 3a 06 86 10 3c e1 36 8e bc d8 a8 4e bc
       0.00074059196 0.008821016 -0.017360153 -0.012613498
0002e0 d0 9a b0 3b 86 0f 60 bc 8a 40 60 bc 8b ee 15 bb
       0.005389549 -0.013675576 -0.013687262 -0.0022877778
0002f0 71 3f 7b 3c 58 f0 0f 3b 4e f7 91 b9 15 56 90 3b
       0.01533495 0.0021963324 -0.00027840812 0.004404793
000300 40 1e 94 3b 10 de ae 3b 4a 2c 86 3b be 29 95 bb
       0.0045202076 0.0053365305 0.004094635 -0.004552095
000310 cd 99 da b9 ae 7f 2b 3b ad ac a9 3b 3f 23 f1 3a
       -0.0004169479 0.0026168632 0.0051780553 0.0018397345
000320 84 57 61 ba c4 d5 94 bc 8f 5b 66 bc 8e 7b e3 bb
       -0.00085961097 -0.018168338 -0.014059915 -0.006942219
000330 14 12 84 bc c6 4a ce 3b 4c 29 4e 3a 57 d2 a7 bb
       -0.016121902 0.006295535 0.000786443 -0.00512151
000340 d3 1f 5a 3b 41 cf a7 bb 8b bb a7 bc 1c bc e3 bb
       0.003328313 -0.005121142 -0.02047517 -0.0069499146
000350 7b 80 97 3b 86 a3 09 3b ae 72 45 3b 33 22 42 bc
       0.0046234704 0.0021002009 0.003012817 -0.011848974
000360 ea e7 d0 bb 9b 57 7d 3c 89 53 c9 3b cb 39 a6 3a
       -0.0063753026 0.015462781 0.0061439914 0.0012682019
000370 d8 fb 02 3c be b8 bf 3b ac 1e 91 3c 7f 29 97 bc
       0.007994615 0.0058508804 0.01771482 -0.018452404
000380 f9 26 33 3b 76 8c 7f bb 40 eb 98 bc 91 b3 eb b8
       0.0027336462 -0.0038993633 -0.018666863 -0.0001123912
000390 14 df ef 3b ed c8 09 bc 50 9c 29 3b 86 79 10 3c
       0.007320294 -0.008409721 0.0025880523 0.008818036
0003a0 4c 83 f6 3c 58 42 94 bc 35 61 cc bb 85 7b a8 3b
       0.030091904 -0.018098041 -0.006237174 0.005141678
0003b0 1c 90 9b 3b d5 2d 02 bc b2 58 f2 ba 22 ad be bb
       0.004747404 -0.0079454975 -0.0018489568 -0.005818979
0003c0 67 0e 82 3c e9 15 26 bc f5 aa 3c 3c f9 6e c8 bb
       0.015876008 -0.01013706 0.011515369 -0.0061167446
0003d0 bf 3e b4 3a 7e 4a 03 3c a3 56 9e bb 6d 26 47 3c
       0.001375161 0.008013366 -0.0048321052 0.0121551575
0003e0 b8 7e fd ba 33 03 0b bc ec 4d 9f bc 7f 30 96 3b
       -0.0019340133 -0.0084846495 -0.019446336 0.004583418
0003f0 93 d0 48 bc 19 0b 24 bb 11 77 e0 bb 2b b8 2f bc
       -0.012256759 -0.0025031029 -0.0068501313 -0.010725061

layers.0.bias f4 [256]
000000 8e ac e1 b9 84 01 85 3b bc 3f ee 3a e8 53 25 3b
       -0.00043043907 0.0040590186 0.0018176953 0.0025227014
000010 05 37 1c bb f7 79 b7 3a 3b 01 a9 3a ca 4b e0 b9
       -0.0023836505 0.001399814 0.0012894043 -0.00042781077
000020 aa 78 dc ba d6 11 14 ba d5 ed b5 39 95 83 af 3a
       -0.0016820629 -0.000564841 0.0003470021 0.0013390655
000030 cb fb 11 b9 27 b9 ec ba 47 89 de ba ec 53 c9 3a
       -0.00013922078 -0.0018060551 -0.0016978168 0.0015360094
000040 89 b8 e3 39 e3 1f e8 39 34 c6 55 3a e5 c9 69 3a
       0.00043434303 0.00044274246 0.000815484 0.0008918329
000050 2a 44 e9 ba 76 ae a1 3a e7 fe 34 3b 3f 77 71 3a
       -0.0017796804 0.0012335319 0.0027617754 0.00092111895
000060 38 1e 96 3a 6d 42 f2 39 e3 c2 f5 39 22 57 95 3a
       0.0011453098 0.00046207328 0.00046875243 0.0011393765
000070 8f 7d c7 b9 4c ad f0 ba 75 dc 10 3a 54 74 3a 3b
       -0.00038049786 -0.0018362193 0.0005526015 0.0028450685
000080 e7 54 67 3a e7 03 3e 3b 39 c9 00 3b 2c 62 a6 3a
       0.0008824602 0.0028994025 0.0019651188 0.0012694052
000090 06 28 02 3a 28 8d 36 3b da cf 06 3a a7 f7 84 ba
       0.00049650704 0.0027855132 0.00051426666 -0.0010144607
0000a0 5a aa 63 ba 50 e8 ab 3a fe df eb b9 5e bf fe 39
       -0.0008684747 0.0013115499 -0.0004498958 0.00048589235
0000b0 13 8d ea 39 db 64 86 3b de 3d 80 38 5a b4 b3 3a
       0.00044737066 0.0041013784 6.115039e-05 0.0013710365
0000c0 b6 d8 a3 3a d1 43 30 3b 61 8e 84 3b 62 50 e0 ba
       0.0012500498 0.002689589 0.004045293 -0.00171138
0000d0 ee ef 1f 3a 83 18 63 3b bf 5c 01 3b 77 90 da ba
       0.0006101121 0.0034652061 0.001973912 -0.0016675134
0000e0 47 8b 39 3b ff 99 7e 3a fa 05 7a 3b 4e 2f b6 3a
       0.0028311776 0.0009712278 0.0038150535 0.0013899596
0000f0 8e aa 01 bb 6d 13 ab 3a 30 8c 80 3a 05 17 8d 39
       -0.0019785496 0.0013052054 0.0009807404 0.00026910767
000100 df e1 13 ba 21 95 a4 3a e4 f9 f4 b9 9c 62 f2 ba
       -0.00056412624 0.0012556651 -0.0004672549 -0.0018492523
000110 60 d9 8d b9 86 c3 f6 b9 5f 5e 93 3a 3b de 5a bb
       -0.00027055573 -0.00047066453 0.0011243335 -0.003339662
000120 56 4d de ba 9d b9 5d b9 3a 14 38 3b 1f a8 b5 3a
       -0.0016960304 -0.00021145349 0.0028088228 0.0013859308
000130 c3 13 61 3b c3 c9 1f 3b f1 19 3e 3b 34 32 f5 ba
       0.0034344054 0.0024381734 0.0029007162 -0.0018706978
000140 30 7a d7 b9 92 f1 af 3a 85 72 4d 3a 26 96 4d bb
       -0.00041099032 0.0013423434 0.0007837194 -0.0031370013
000150 33 9d 76 38 34 de 1e ba 47 46 37 3b 29 bb b4 3a
       5.8797374e-05 -0.00060603325 0.0027965473 0.0013788688
000160 f1 8b d6 b9 ab f1 5b bb cc 7d 36 b9 63 a6 03 3b
       -0.00040921525 -0.0033560793 -0.00017403736 0.0020088188
000170 32 d9 ea b9 45 d4 d0 3a 98 ac aa 3a 0a 7d 40 38
       -0.0004479378 0.0015932402 0.0013021408 4.589282e-05
000180 e8 f1 13 3a f3 13 54 3b 69 69 42 3b dc 5e e0 ba
       0.0005643652 0.0032360523 0.002966488 -0.0017118114
000190 b1 2d a2 39 eb 78 df b9 27 10 5c bb 3c 36 ed b9
       0.0003093309 -0.00042623965 -0.0033578963 -0.0004524457
0001a0 03 96 ad 3a 74 89 1e 3a ac f7 4c 3b 44 fb 87 ba
       0.001324356 0.0006047704 0.0031275554 -0.0010374566
0001b0 71 23 34 3b 25 aa a1 38 e4 98 e2 ba d0 03 87 3b
       0.0027486945 7.70877e-05 -0.0017287997 0.0041203275
0001c0 3a ea b4 3a 75 54 c0 39 d0 4a 3a 3b 03 ba f1 3a
       0.0013802715 0.0003668402 0.002842594 0.0018442277
0001d0 27 31 1b 3b 4b f8 5a bb 70 ab c2 3a f7 f9 d4 3a
       0.002368042 -0.0033412154 0.0014852118 0.0016248812
0001e0 dc 13 b9 3a 2e f0 ab 3a 13 fe 4d 3a 3e 56 3b 39
       0.0014120298 0.0013117844 0.00078579894 0.00017865837
0001f0 8a 10 8b 3b 30 81 e3 ba ab b7 90 3a ce da 84 3b
       0.004243915 -0.0017357226 0.0011041065 0.004054404
000200 40 e3 b5 3a b5 0a 4d 3b 19 86 3d 3b 42 a7 46 3b
       0.001387693 0.00312869 0.002891904 0.0030312096
000210 83 2e 3d 3b 9f 1d 39 3a 5e 7e 85 ba 18 b0 78 ba
       0.0028866834 0.0007061604 -0.0010184755 -0.0009486689
000220 82 97 a8 3a 25 2a c0 3a c1 99 e1 ba 1e 33 ef 39
       0.0012862536 0.0014660998 -0.001721196 0.00045623718
000230 e7 ab 4f 3a c3 0f bb 3a 74 8f e1 3a 92 2b e9 ba
       0.0007922039 0.0014271665 0.001720889 -0.0017789474
000240 c8 52 50 3a cd 6d 87 b9 74 3c c1 3a e2 af 5d ba
       0.00079469057 -0.00025831014 0.0014742748 -0.00084566895
000250 9f 8a 5c 3a a9 a0 3c 3b b3 01 55 bb 93 e4 29 3b
       0.000841299 0.0028782284 -0.0032502234 0.0025923594
000260 1b a0 f8 b8 2f 2f ab 3a 7c 92 b0 3a bc a7 e6 ba
       -0.000118553835 0.0013060326 0.001347139 -0.0017597596
000270 af a0 eb ba 6d df f3 39 cb 2c c3 ba fa a0 23 ba
       -0.0017976965 0.00046515037 -0.0014890669 -0.0006241944
000280 02 21 6b b9 d4 7e f2 ba b1 b0 6e 3a ba 4d e6 ba
       -0.00022423643 -0.0018500932 0.00091053086 -0.0017570772
000290 42 d2 45 bb 55 fd e0 b9 a9 2f 84 3a c5 f4 10 3b
       -0.0030185138 -0.00042913356 0.0010085005 0.002211855
0002a0 2a 33 51 3a a8 88 6d 3a 25 5b e2 b9 a8 af f2 ba
       0.00079803413 0.0009061196 -0.00043173987 -0.0018515484
0002b0 95 68 09 39 29 16 b5 b8 9a ad 3d 3a 91 3a 39 3b
       0.00013104298 -8.63488e-05 0.00072356465 0.0028263668
0002c0 26 a0 55 bb 5a 82 61 ba 45 83 34 3b dd 5c 3d 3b
       -0.0032596677 -0.0008602493 0.0027544063 0.0028894462
0002d0 34 c6 4e 3a c5 31 a9 3a 91 b8 ef ba 74 e2 8d 3a
       0.0007887811 0.0012908509 -0.0018289258 0.0010824935
0002e0 40 f2 67 39 2a ed 36 3b a8 c4 58 bb 83 a3 ee 3a
       0.00022120122 0.0027912357 -0.00330762 0.0018206689
0002f0 15 63 5c 3b d5 0c 5a bb bc d6 6a 3b 2f f3 cd 3a
       0.0033628393 -0.0033271809 0.0035833558 0.0015712733
000300 47 8f d9 39 59 11 e6 b8 33 9b 50 ba 35 30 8d 3a
       0.00041496215 -0.00010970486 -0.0007957697 0.0010771813
000310 2d 4f cf ba 42 0b 5e ba 74 81 e8 b9 8c b0 48 3b
       -0.0015816443 -0.00084703055 -0.00044346938 0.0030622808
000320 47 02 8f 3a 0f 68 f3 3a c9 f9 02 ba 0f 98 54 bb
       0.0010910713 0.0018570441 -0.00049963273 -0.0032439267
000330 ac 87 10 3b 54 75 c4 ba f7 07 3e 3b 24 0d 64 39
       0.0022053523 -0.001498858 0.0028996447 0.0002174867
000340 8b 74 ff 3a d2 59 f3 ba e8 dc 8f 3a 89 5f f3 ba
       0.0019489689 -0.0018566197 0.0010975869 -0.00185679
000350 4d c4 b3 3a 91 12 9a 3a 45 39 b5 3a 06 7f 44 3b
       0.0013715118 0.0011754801 0.0013826272 0.0029982938
000360 34 99 11 3a 6d cd f0 ba f4 b2 b0 3a f5 4e 2d 3a
       0.000555414 -0.0018371769 0.0013481067 0.0006611192
000370 a5 b3 10 3b 1d a9 ac 3a d1 6b 09 3a d1 01 31 3a
       0.0022079733 0.0013172958 0.0005242201 0.0006752285
000380 e8 58 7f 3b 1d 7e 62 39 45 f0 5c bb 57 ba 99 3a
       0.0038962904 0.0002160002 -0.0033712548 0.0011728507
000390 f4 ec 9b 3a 17 d6 a0 39 1f 9a 5d 3a 99 93 b5 ba
       0.0011896179 0.00030677087 0.0008453447 -0.0013853192
0003a0 40 4e 37 3b 9f 16 ec ba ab e1 36 3b 45 4e e2 ba
       0.0027970225 -0.0018012113 0.0027905505 -0.0017265758
0003b0 00 fd ab 3a 5f ad 87 3b 91 48 53 bb 0a 2b 3b 3b
       0.0013121665 0.0041405405 -0.0032239298 0.0028559589
0003c0 ea db 05 3b 98 4e 37 3b 64 55 59 bb 12 c6 d8 b9
       0.0020425268 0.002797043 -0.003316247 -0.00041346304
0003d0 a9 11 fc 39 f9 ca 4f b9 98 ee e4 b9 02 e2 46 3b
       0.00048078343 -0.00019816672 -0.00043665315 0.0030347113
0003e0 4c 79 b6 3a ad 3a 48 3a ee 3c 1c 3b 37 2b 66 3b
       0.0013921647 0.0007638138 0.0023840028 0.0035120973
0003f0 c0 2f ec ba 49 aa 78 b8 c6 38 a6 3a 90 4f b5 3a
       -0.0018019602 -5.9286398e-05 0.0012681715 0.0013832916

layers.1.weight f4 [6, 256]
000000 cc 19 0e bd b1 64 08 bd 7b 84 11 bd 8d 0a 15 bd
       -0.03469257 -0.03329915 -0.035526734 -0.036387015
000010 03 da 08 bd 01 c1 10 bd 3e 47 fe bc 2e 11 0e bd
       -0.033411037 -0.035340313 -0.03103983 -0.034684353
000020 66 07 1c bd 6b 09 0c bd 8d 50 11 bd 11 7a fe bc
       -0.038092993 -0.03418867 -0.03547721 -0.031064065
000030 20 ac 09 bd 83 08 17 bd 91 fc 1b bd 49 fd 10 bd
       -0.033611417 -0.03687335 -0.038082663 -0.0353978
000040 47 e7 0c bd 29 ee 0c bd 38 ac 12 bd 3e 8e 0f bd
       -0.03440025 -0.034406815 -0.03580877 -0.035047762
000050 41 93 f9 bc 8c b7 1d bd dd c6 14 bd 8f e7 12 bd
       -0.030465724 -0.038505122 -0.036322463 -0.035865363
000060 2c 44 1c bd 63 0e 0d bd 3b 17 0d bd 9f 4e 1d bd
       -0.03815095 -0.03443755 -0.034445982 -0.038405057
000070 b4 a3 19 bd d8 64 1b bd d7 fe 01 bd 52 86 14 bd
       -0.037509635 -0.03793797 -0.031737175 -0.03626091
000080 91 f0 1b bd b3 54 14 bd 30 c2 11 bd 5e 35 fe bc
       -0.03807122 -0.036213588 -0.035585582 -0.031031307
000090 76 3a 0d bd d5 65 14 bd 9c 53 0d bd dd a4 09 bd
       -0.03447958 -0.036229927 -0.034503564 -0.03360449
0000a0 04 83 05 bd 8b 0a 0d bd 41 e1 0d bd 4a 48 0d bd
       -0.03259565 -0.034433883 -0.034638647 -0.03449277
0000b0 92 fa 0c bd 1f a2 13 bd 71 f7 0a bd 1f 48 1e bd
       -0.03441865 -0.036043283 -0.033927385 -0.038643
0000c0 30 c8 1d bd aa 74 14 bd 51 39 08 bd 60 6b fb bc
       -0.03852099 -0.036244072 -0.033257786 -0.030690849
0000d0 71 1f 02 bd 9f a0 11 bd a9 76 11 bd 5a 16 1c bd
       -0.031768266 -0.03555357 -0.035513554 -0.038107254
0000e0 7e aa 14 bd 11 0d 1c bd e3 c3 12 bd 98 52 1e bd
       -0.036295407 -0.0380984 -0.035831343 -0.038652986
0000f0 da 6f 07 bd 05 f7 1d bd aa c7 0f bd 79 d8 1a bd
       -0.033065654 -0.038565654 -0.035102524 -0.0378041
000100 4d 78 19 bd 30 5d 14 bd 1b b5 0d bd b4 35 fa bc
       -0.037468243 -0.036221683 -0.034596544 -0.030543186
000110 c2 03 1a bd ce b1 0d bd 80 42 1d bd 13 42 06 bd
       -0.03760124 -0.034593396 -0.038393497 -0.032777857
000120 46 0b 1c bd a3 f4 0c bd 60 47 14 bd fd e0 0f bd
       -0.03809669 -0.03441299 -0.03620088 -0.035126675
000130 4f c1 11 bd 04 e9 12 bd 3c 76 14 bd 8f e5 fb bc
       -0.035584744 -0.035866752 -0.03624557 -0.03074911
000140 07 38 0e bd d6 29 1e bd 46 b0 0f bd ee 83 06 bd
       -0.0347214 -0.038614117 -0.035080217 -0.03284066
000150 71 37 0b bd 11 10 0c bd 67 bf 14 bd 89 43 1e bd
       -0.03398842 -0.03419501 -0.036315348 -0.038638625
000160 1c 3a 0e bd b0 8f 07 bd d4 e1 0c bd 4e ef 11 bd
       -0.034723386 -0.033096015 -0.034395054 -0.03562861
000170 e8 9c 0f bd 8e ff ff bc 98 8b fe bc 60 4a 0d bd
       -0.035061747 -0.031249788 -0.031072423 -0.034494758
000180 46 97 0d bd d9 9d 06 bd 3b 78 10 bd cd 69 fb bc
       -0.034568094 -0.03286538 -0.03527091 -0.030690098
000190 e4 cc 0d bd 37 14 0e bd d3 52 06 bd b8 e4 0d bd
       -0.034619227 -0.034687247 -0.03279383 -0.03464195
0001a0 00 0b 1e bd 4c 49 fe bc 4d 93 02 bd 66 40 0b bd
       -0.03858471 -0.03104081 -0.03187876 -0.033996962
0001b0 68 eb 14 bd c1 4d 0a bd c8 be 1b bd a5 a0 08 bd
       -0.036357313 -0.03376556 -0.03802374 -0.033356328
0001c0 aa 53 1e bd af fb 0a bd 42 35 14 bd 74 a2 11 bd
       -0.038654007 -0.03393143 -0.036183603 -0.035555318
0001d0 1e c0 12 bd b1 df 05 bd 76 d5 10 bd 0a cf 0a bd
       -0.03582775 -0.032684032 -0.035359822 -0.033888854
0001e0 27 67 1e bd 8f 72 fe bc bc bc 1b bd ff 7c 0d bd
       -0.038672592 -0.031060485 -0.038021788 -0.034543034
0001f0 62 7e 08 bd 72 e8 1b bd 8a d0 02 bd 21 c6 0a bd
       -0.033323653 -0.038063474 -0.03193716 -0.033880357
000200 34 64 1e bd c6 81 02 bd 38 b1 14 bd bb 30 06 bd
       -0.03866978 -0.031862043 -0.03630182 -0.032761317
000210 c7 90 14 bd 48 92 0e bd af 34 0a bd e4 10 ff bc
       -0.036270883 -0.034807473 -0.03374165 -0.031135984
000220 c3 40 fe bc fc 19 ff bc 8d e4 1b bd 5a 0b 0e bd
       -0.03103674 -0.03114032 -0.03805976 -0.034678794
000230 8c 75 12 bd 5c 6c ff bc 03 6b 00 bd 88 c8 1b bd
       -0.035756633 -0.0311796 -0.031352054 -0.03803304
000240 36 68 12 bd a8 bb 0c bd be 09 ff bc 90 f1 05 bd
       -0.035743915 -0.03435865 -0.031132575 -0.032701075
000250 66 0d 1c bd 38 39 15 bd aa 6e 07 bd 9a 5f 0a bd
       -0.038098715 -0.03643152 -0.03306452 -0.03378258
000260 25 fe 00 bd 0b f8 1d bd aa 2a 1e bd 62 09 fb bc
       -0.03149237 -0.03856663 -0.038614906 -0.030644123
000270 86 a4 fa bc 0d de 01 bd 3a dc fc bc 5b 09 0c bd
       -0.030596029 -0.031705905 -0.030866731 -0.03418861
000280 72 1a 1a bd ea 1e fa bc 0e cd 12 bd 0f f7 fa bc
       -0.037622876 -0.03053232 -0.035840087 -0.030635385
000290 4b ec 03 bd d0 fe 0d bd 00 8b 1a bd 2b 4a 13 bd
       -0.03220777 -0.034666836 -0.037730217 -0.035959404
0002a0 c2 73 12 bd 2b d9 12 bd 53 04 0e bd e4 22 fa bc
       -0.035754927 -0.03585164 -0.034672093 -0.030534215
0002b0 9a d2 10 bd 38 11 0d bd 3d 35 12 bd cb bb 14 bd
       -0.035357095 -0.03444025 -0.035695303 -0.036311906
0002c0 85 b3 06 bd 35 c7 0e bd 6c 1d 14 bd 7f 49 0a bd
       -0.032886047 -0.034857947 -0.03616087 -0.033761498
0002d0 57 59 0f bd c7 34 fe bc 4c 4e fa bc da 1f 10 bd
       -0.03499731 -0.031031026 -0.030554913 -0.035186626
0002e0 70 12 0e bd 71 08 10 bd 90 f9 05 bd 6e 8f 11 bd
       -0.034685552 -0.0351643 -0.032708704 -0.035537176
0002f0 f0 84 06 bd 50 e2 05 bd 55 e6 11 bd fa 4b 10 bd
       -0.032841623 -0.03268653 -0.035620052 -0.035228707
000300 75 1e 0b bd b0 22 0d bd 7d e0 00 bd 9a 99 13 bd
       -0.033964593 -0.03445691 -0.03146409 -0.036035158
000310 38 18 fa bc d9 72 03 bd b5 ef 0d bd d0 03 06 bd
       -0.030529127 -0.03209195 -0.03465243 -0.03271848
000320 90 6c 13 bd f7 34 01 bd 60 5f 0d bd 40 30 06 bd
       -0.035992205 -0.03154465 -0.034514785 -0.03276086
000330 f6 a6 12 bd 89 3a 0a bd 4d 6b 14 bd 5a df 1a bd
       -0.035803758 -0.03374723 -0.036235142 -0.03781066
000340 25 6d 0e bd 75 22 fa bc 00 84 13 bd e0 b0 1b bd
       -0.034772057 -0.030534009 -0.036014557 -0.038010478
000350 32 ba 1c bd 75 6e 1c bd 35 4e 1e bd 84 c6 02 bd
       -0.038263507 -0.038191278 -0.038648803 -0.0319276
000360 fd d6 11 bd 63 40 fa bc 57 b7 1c bd 29 42 0e bd
       -0.03560542 -0.03054828 -0.038260784 -0.034731064
000370 f7 eb 0e bd 6c a0 1c bd fe 66 0d bd 95 90 1b bd
       -0.034893002 -0.038238928 -0.03452205 -0.03797968
000380 2f e2 12 bd 45 fc 10 bd 13 e5 05 bd 5b 03 1d bd
       -0.035860237 -0.035396833 -0.032689165 -0.03833328
000390 24 73 ff bc 69 db 1a bd 7a 9d 12 bd 39 a4 17 bd
       -0.031182833 -0.037806902 -0.035794713 -0.03702185
0003a0 4a ba 14 bd 85 fd 09 bd 92 39 14 bd be 04 1c bd
       -0.03631047 -0.03368904 -0.036187716 -0.03809046
0003b0 54 f1 1d bd 03 6d 08 bd f4 2e 07 bd 4f d0 14 bd
       -0.038560227 -0.033307087 -0.033003762 -0.03633147
0003c0 5e e2 11 bd 65 ac 14 bd a7 ee 05 bd 14 4f 0e bd
       -0.03561627 -0.03629722 -0.0326983 -0.034743384
0003d0 59 23 0d bd 9b 73 03 bd f3 f9 0d bd dd 30 07 bd
       -0.03445754 -0.03209267 -0.0346622 -0.033005584
0003e0 81 44 1e bd 52 69 12 bd 8c b2 17 bd 7d e5 11 bd
       -0.03863955 -0.035744973 -0.03703551 -0.035619248
0003f0 88 6e fa bc d4 6b 1a bd b6 96 1c bd 0d b5 fe bc
       -0.030570284 -0.03770049 -0.038229667 -0.031092191

layers.1.bias f4 [6]
000000 b6 b1 8e bd 9a f0 42 bc e9 d0 7a bc 02 bb 63 bc
       -0.069674894 -0.011898184 -0.015308597 -0.013899567
000010 07 38 7f bc ae 34 53 bc
       -0.015577323 -0.012890978
