model_weights/logreg_model_Cora.pth (torch, 534299 bytes, 4 tensors)

layers.0.weight f4 [256, 512]
-0.011366564 -0.01979942 -0.018790403 0.02269605 0.011909108 -0.0026704785 -0.015997924 0.025878927
0.018912844 -0.047359556 -0.0048656445 0.0017872741 0.0016081925 0.029867303 0.0026026438 0.00784974
0.0126109235 0.018049045 -0.015323727 0.00060344173 -0.032411173 0.031096736 0.021362118 0.00867151
0.022671647 0.007427519 -0.0054097823 0.0012037022 -0.029842785 -0.00029417902 -0.021068936 -0.034008794
0.005518257 0.02550038 -0.0054771295 0.0034850086 0.017191635 0.0025243638 0.032975093 -0.004536903
0.0085865455 -0.009211763 0.013410721 -0.0136618 0.0037141892 0.010819599 0.0022715419 -0.0026869266
-0.0039395187 -0.013969331 -0.005227168 0.0036555594 0.008984278 0.0026122709 0.014129198 -0.019076623
-0.029987304 0.0039769798 -0.022086903 -0.0025763144 -0.003101653 -0.012010924 0.0043950626 -0.007284519
0.0140388645 0.003743307 0.0015777198 -0.00010966717 -0.020024516 -0.002635436 0.012640526 0.008256899
-0.0025033858 0.008454158 -0.01768579 -0.005013027 -0.029016038 -0.010444936 0.009540991 -0.010102892
0.014457102 0.010630959 -0.016478382 0.058782354 0.0076124654 -0.044715516 0.006695301 -0.016732456
0.032000985 0.019507833 0.00135053 0.015857363 -0.049621303 0.010309785 -0.038415387 0.017582897
0.0042194906 0.014876526 -0.017165337 0.04175622 0.03405462 -0.0045898072 0.0017645817 -0.0096225515
-0.0118249245 0.0063259676 0.03266982 -0.029701315 -0.031683527 -0.009122957 -0.014859104 -0.016487073
-0.011413232 -0.019285593 -0.01818863 0.05231745 0.0044307252 0.044002037 0.046141967 0.00613039
-0.010112603 -0.017278422 -0.014258986 0.010479451 0.028265955 -0.018978832 0.008507876 -0.013299127
-0.0029283874 -0.003913955 0.018296765 -0.0026607953 -0.018447328 0.027215991 -0.004681638 -0.017994862
0.023218513 0.015970195 0.0061281864 -0.03265302 0.024551326 -0.005994355 0.0030273893 -0.009819141
-0.004001423 -0.02779675 0.009981519 0.033032756 0.004935071 -0.016342986 0.0012899449 0.015483741
0.014384139 -0.011000872 -0.02162917 0.0040705767 -0.008369471 0.019202184 0.025776103 -0.023566682
-0.0009091405 0.025828073 -0.008091189 -0.019405266 -0.0015242419 0.02427347 0.042539906 -0.024084968
0.022035103 0.0061596055 -0.023667878 -0.0148590375 0.010134052 0.0020198887 -0.004727923 0.007527895
0.0026736453 0.009109502 0.022244975 -0.016442278 -0.0057824724 -0.036013592 0.024226848 -0.023885347
-0.04484952 -0.032189324 0.012341316 0.011334824 -0.0011302532 -0.033792295 0.0026335437 -0.0072504533
0.03765661 -0.00086931675 -0.019946637 -0.005965522 0.008320429 0.026315082 -0.02348637 -0.0029003609
0.031163247 -0.0047219447 -0.017744347 0.010182397 0.012926877 -0.058329124 -0.0064497115 -0.0009916248
0.009073651 -0.0033755763 -0.009286375 -0.009218444 0.015381229 0.01516331 -0.016999422 0.02819366
0.01941289 0.035129845 -0.008553428 -0.0026579618 0.013581296 -0.006008855 -0.0063785217 0.007591697
-0.019747531 -0.00753693 0.0022332885 -0.018856013 -0.0018017814 0.011287203 0.008535196 -0.0043833726
-0.015205918 -0.01431613 -0.020597814 0.052252255 0.005463741 -0.012951552 0.014447753 0.017217422
-0.010667454 -0.007376848 -0.0069442885 -0.00021977133 -0.019793581 -0.023020871 0.022226518 -0.01417345
0.025425099 0.011282083 0.014107643 0.02292928 -0.058996525 0.022079082 -0.03650483 0.03485299
00000000: d33a 3abc 6532 a2bc 55ee 99bc 11ed b93c
00000010: 6b1e 433c 3203 2fbb 140e 83bc 0b00 d43c
00000020: 1cef 9a3c 18fc 41bd fc6f 9fbb f842 ea3a
00000030: fcc9 d23a 46ac f43c 1e91 2a3b 329c 003c
00000040: 0c9e 4e3c 97db 933c 5f10 7bbc 4a30 1e3a
00000050: 94c1 04bd 95be fe3c 9cff ae3c f312 0e3c
00000060: e4b9 b93c 8c62 f33b 8b44 b1bb 8bc5 9d3a
00000070: db78 f4bc 0a3c 9ab9 c398 acbc ce4c 0bbd
00000080: 7fd2 b43b 2ce6 d03c 7e79 b3bb be64 643b
00000090: 79d5 8c3c cc6f 253b e410 073d 4daa 94bb
000000a0: 95ae 0c3c efec 16bc a4b8 5b3c bed5 5fbc
000000b0: c169 733b b044 313c 26de 143b 2617 30bb
000000c0: 1417 81bb 9fdf 64bc aa48 abbb 1c92 6f3b
000000d0: cb32 133c a232 2b3b 277e 673c 9446 9cbc
000000e0: efa7 f5bc 5351 823b 98ef b4bc 62d7 28bb
000000f0: 1a45 4bbb 77c9 44bc 7504 903b f9b2 eebb
00000100: 4403 663c 4552 753b 7ecb ce3a 1dfd e5b8
00000110: 740a a4bc 47b7 2cbb 351a 4f3c f247 073c
00000120: d80f 24bb 4f83 0a3c cae1 90bc 5244 a4bb
00000130: 0bb3 edbc 3d21 2bbc d151 1c3c 9a86 25bc
00000140: 7bdd 6c3c 792d 2e3c acfd 86bc c4c5 703d
00000150: fd71 f93b 9e27 37bd 4164 db3b 8112 89bc
00000160: 7713 033d e4ce 9f3c 4404 b13a 4de7 813c
00000170: b53f 4bbd 5fea 283c 7459 1dbd 020a 903c
00000180: a743 8a3b acbc 733c 529e 8cbc 9208 2b3d
00000190: db7c 0b3d 1866 96bb 8949 e73a e8a7 1dbc
000001a0: 54bd 41bc 104a cf3b cad0 053d 2c50 f3bc
000001b0: 96c6 01bd 7478 15bc 9973 73bc e60f 87bc
000001c0: 91fe 3abc d2fc 9dbc 5200 95bc d34a 563d
000001d0: 9e2f 913b 7b3b 343d 5cff 3c3d 70e1 c83b
000001e0: 55af 25bc 7a8b 8dbc 869e 69bc 01b2 2b3c
000001f0: 018e e73c 7f79 9bbc 9e64 0b3c 95e4 59bc
00000200: 30ea 3fbb a240 80bb 19e3 953c bd60 2ebb
00000210: da1e 97bc 12f4 de3c 6d68 99bb f669 93bc
00000220: c034 be3c edd3 823c f4ce c83b 2cbf 05bd
00000230: dd1f c93c 4b6c c4bb 2a67 463b 76e0 20bc
00000240: 5e1e 83bb 03b6 e3bc 8689 233c 5b4d 073d
00000250: 60b6 a13b bae1 85bc 5e13 a93a 84af 7d3c
00000260: 74ab 6b3c 003d 34bc a82f b1bc 7962 853b
00000270: 1b20 09bc e64d 9d3c 6828 d33c ea0e c1bc
00000280: 6353 6eba 6595 d33c e890 04bc cbf7 9ebc
00000290: 12c9 c7ba 28d9 c63c 533e 2e3d d74d c5bc
000002a0: f682 b43c 84d6 c93b 23e3 c1bc 5273 73bc
000002b0: 4b09 263c 1c60 043b b1ec 9abb 8fac f63b
000002c0: 5338 2f3b 0540 153c 183b b63c f5b1 86bc
000002d0: e57a bdbb fd82 13bd 6277 c63c 34ab c3bc
000002e0: 21b4 37bd f4d8 03bd 3b33 4a3c b3b5 393c
000002f0: 0125 94ba ca69 0abd 8897 2c3b 3695 edbb
00000300: d13d 1a3d dce2 63ba 2167 a3bc 6d7a c3bb
00000310: 6952 083c ba92 d73c 7d66 c0bc fb13 3ebb
00000320: 114a ff3c 8bba 9abb 985c 91bc 12d4 263c
00000330: 40cb 533c 85ea 6ebd 1a58 d3bb 68f9 81ba
00000340: a7a9 143c c638 5dbb e125 18bc f508 17bc
00000350: 8d01 7c3c 886f 783c 5f42 8bbc 64f6 e63c
00000360: c807 9f3c 50e4 0f3d ad23 0cbc 3331 2ebb
00000370: 1684 5e3c eee5 c4bb eb02 d1bb c5c3 f83b
00000380: 93c5 a1bc 5af8 f6bb 5d5c 123b ed77 9abc
00000390: c029 ecba f6ed 383c 35d7 0b3c 65a2 8fbb
000003a0: 3e22 79bc 348e 6abc bfbc a8bc 7606 563d
000003b0: 2e09 b33b bf32 54bc 45b6 6c3c 8d0b 8d3c
000003c0: 8cc6 2ebc 7cb9 f1bb ea8c e3bb 6b72 66b9
000003d0: 2626 a2bc 4496 bcbc 6314 b63c c237 68bc
000003e0: 4c48 d03c 7cd8 383c be23 673c 2fd6 bb3c
000003f0: 57a6 71bd 31df b43c 1786 15bd 02c2 0e3d

layers.0.bias f4 [256]
-0.019133642 -0.06062153 -0.22575903 -0.030289017 -0.09354425 -0.011852375 0.03529535 0.07343966
0.07640729 -0.16019051 -0.005519806 0.05037984 -0.11761532 -0.09039991 -0.08159976 0.003383024
-0.05476655 -0.029301623 0.014525117 -0.13104017 -0.07525826 -0.112290435 -0.19728011 -0.04035525
-0.13726085 0.07525028 -0.07514549 -0.13777964 -0.18663771 -0.041423194 -0.18999931 -0.06768719
-0.12108608 -0.21857496 -0.08193697 -0.3477622 0.21058023 -0.08266242 -0.022593288 0.0445869
-0.12397171 0.018954925 0.018593643 -0.112561345 -0.13988626 -0.009900391 0.026362067 -0.020111576
-0.113221124 -0.09427399 -0.2390398 0.032987904 0.030144127 0.07876967 -0.33787718 0.050201025
-0.12110967 -0.16939645 -0.0837498 -0.0021398126 0.0533497 -0.11415394 -0.09435512 -0.022701865
-0.0033228889 -0.11537027 -0.0138837285 -0.1139623 -0.03789703 0.09289924 -0.12579565 0.09547701
-0.041289452 -0.05974412 -0.07446603 0.1091238 -0.07956958 -0.028233388 -0.43819326 -0.124416545
0.0032396899 -0.011322911 -0.105583735 -0.15089399 -0.049884744 -0.028605789 -0.18557835 -0.12190851
-0.04190426 0.07314538 -0.18682823 -0.115237646 0.00834963 -0.092002414 0.0894225 -0.04613375
-0.15653639 -0.28080392 0.0033851967 -0.22431514 0.011447072 0.03411816 0.060234655 0.13383763
0.080134794 -0.003088475 -0.13591114 -0.037998445 -0.08267594 0.08558129 -0.08670089 -0.266337
-0.021028444 -0.17118317 0.12246098 -0.118432574 0.0018443349 -0.039128512 -0.063616574 -0.12471377
-0.12519008 0.026660876 -0.13430738 -0.10525235 -0.047557935 -0.045767553 -0.15342857 -0.031664178
-0.03273276 -0.15189004 -0.070727274 -0.012433119 -0.059062064 0.027023746 -0.116926156 0.0073484657
-0.036662944 -0.05381074 -0.11491603 -0.051332667 -0.012168839 -0.062406402 -0.16016763 -0.059059523
-0.030044071 -0.00024585312 -0.045293808 -0.11195126 0.13948922 -0.05562027 0.124620065 -0.09751365
0.0033435097 0.060587548 -0.13956642 0.0040253233 -0.009863386 0.04088426 -0.15897511 0.042843953
-0.030755922 0.07033795 -0.07476346 0.019364398 -0.0776799 0.0080250865 -0.12649861 -0.028684266
-0.06161894 -0.009047129 -0.0009986201 0.009395655 0.03170711 0.08918792 -0.015800819 -0.08134789
-0.023628378 -0.018956147 0.119974606 -0.0025732394 -0.10823069 -0.085318565 -0.005386183 0.08261447
-0.08256264 -0.10671578 -0.07206581 -0.10882548 -0.3863044 0.02733862 -0.1670641 0.15235643
-0.029180605 -0.09672309 0.1028273 -0.19071537 -0.17638393 -0.0741241 -0.015831623 0.20796715
0.16048181 -0.26234356 -0.04832982 -0.089812614 0.014780591 -0.09653391 0.09520639 -0.09787365
-0.026734998 -0.02382391 -0.1191105 -0.10531733 0.12009412 0.051276878 -0.22881044 -0.22319211
0.047046732 0.023150656 0.14352226 -0.14900859 0.12171218 -0.06725771 -0.11656406 -0.18603335
-0.16621491 -0.10761919 -0.058300342 -0.023069197 -0.11025341 0.14360261 0.013875795 -0.06828185
-0.14564817 -0.13794622 0.051557593 -0.0070348913 -0.067818746 -0.24402012 -0.054356042 -0.07185667
-0.1871529 -0.11035371 -0.02231311 -0.0052088755 -0.10283846 -0.15180214 -0.23261254 -0.15115373
0.03584455 -0.11966493 -0.05723784 -0.030631246 -0.013488902 -0.17304702 -0.124248564 -0.17894517
00000000: 28be 9cbc 484e 78bd 602d 67be ac20 f8bc
00000010: 2194 bfbd 7730 42bc db91 103d 8867 963d
00000020: 6d7b 9c3d fb08 24be 7ddf b4bb 175b 4e3d
00000030: 4de0 f0bd 9723 b9bd c61d a7bd b9b5 5d3b
00000040: e452 60bd f509 f0bc c2fa 6d3c 652f 06be
00000050: 0121 9abd 87f8 e5bd cc03 4abe 8c4b 25bd
00000060: 1c8e 0cbe d21c 9a3d e1e5 99bd 1b16 0dbe
00000070: f51d 3fbe 5eab 29bd 2e8f 42be 959f 8abd
00000080: fbfb f7bd 1dd2 5fbe 92ce a7bd e30d b2be
00000090: 58a2 573e ea4a a9bd 8f15 b9bc c1a0 363d
000000a0: e1e4 fdbd 5c47 9b3c b251 983c 9086 e6bd
000000b0: 583e 0fbe 4035 22bc 43f5 d73c 08c1 a4bc
000000c0: 7ae0 e7bd b912 c1bd d9c6 74be 531e 073d
000000d0: d1f0 f63c fe51 a13d 3dfe acbe 979f 4d3d
000000e0: 5908 f8bd 4376 2dbe 0485 abbd 193c 0cbb
000000f0: 3785 5a3d 8ac9 e9bd 423d c1bd 43f9 b9bc
00000100: d3c4 59bb 4047 ecbd 9478 63bc 1165 e9bd
00000110: eb39 1bbd f541 be3d 93d0 00be 7389 c33d
00000120: 211f 29bd 40b6 74bd a581 98bd 4d7c df3d
00000130: 60f5 a2bd b549 e7bc de5a e0be 1ace febd
00000140: fa50 543b bb83 39bc 493c d8bd f483 1abe
00000150: f253 4cbd b056 eabc 4008 3ebe 2bab f9bd
00000160: cda3 2bbd 3fcd 953d e64f 3fbe b701 ecbd
00000170: e3cc 083c c36b bcbd 2523 b73d bef6 3cbd
00000180: 134b 20be 88c5 8fbe 2dda 5d3b deb2 65be
00000190: 808c 3b3c 7cbf 0b3d 9db8 763d bb0c 093e
000001a0: b61d a43d 0368 4abb 4a2c 0bbe 42a4 1bbd
000001b0: 0152 a9bd 3e45 af3d 3c90 b1bd 535d 88be
000001c0: d843 acbc a44a 2fbe d3cc fa3d c78c f2bd
000001d0: 9cbd f13a 3845 20bd 6849 82bd ef69 ffbd
000001e0: d431 00be e967 da3c e087 09be 8b8e d7bd
000001f0: 1ccc 42bd c276 3bbd 611c 1dbe 4cb2 01bd
00000200: c912 06bd 1089 1bbe 76d9 90bd 48b4 4bbc
00000210: 10eb 71bd e760 dd3c fb76 efbd 66cb f03b
00000220: e22b 16bd a768 5cbd 1859 ebbd 3442 52bd
00000230: cf5f 47bc db9d 7fbd fc02 24be 66e8 71bd
00000240: fc1e f6bc d9e5 80b9 0086 39bd b446 e5bd
00000250: 43d6 0e3e 15d2 63bd ce38 ff3d 3db5 c7bd
00000260: c91e 5b3b a62a 783d 80ea 0ebe dce6 833b
00000270: 0a9a 21bc 4176 273d 5fca 22be 247d 2f3d
00000280: d8f3 fbbc 580d 903d 961d 99bd 16a2 9e3c
00000290: a416 9fbd a77b 033c da88 01be 44fb eabc
000002a0: 2464 7cbd 693a 14bc 21e4 82ba 3cf0 193c
000002b0: 51df 013d 28a8 b63d b870 81bc b999 a6bd
000002c0: 4d90 c1bc ec49 9bbc 3fb5 f53d cba3 28bb
000002d0: 0da8 ddbd 80bb aebd 947e b0bb c631 a93d
000002e0: 9a16 a9bd ce8d dabd 3d97 93bd e5df debd
000002f0: b1c9 c5be 3ef5 df3c da12 2bbe 5303 1c3e
00000300: 2a0c efbc c116 c6bd 1f97 d23d e44a 43be
00000310: fd9d 34be 60ce 97bd 52b1 81bc 57f5 543e
00000320: 5855 243e e551 86be 7df5 45bd adef b7bd
00000330: 4b2a 723c 92b3 c5bd 91fb c23d fb71 c8bd
00000340: 5b03 dbbc 5c2a c3bc 35f0 f3bd 9db0 d7bd
00000350: e8f3 f53d b407 523d 494d 6abe 798c 64be
00000360: 13b4 403d 72a6 bd3c 80f7 123e b595 18be
00000370: 3c44 f93d 69be 89bd 23b9 eebd 877f 3ebe
00000380: 3e34 2abe 7367 dcbd 57cc 6ebd 9dfb bcbc
00000390: 8acc e1bd 900c 133e 4d57 633c 5bd7 8bbd
000003a0: cb24 15be c641 0dbe 0e2e 533d f284 e6bb
000003b0: 8ee4 8abd 69e0 79be 71a4 5ebd 9729 93bd
000003c0: 03a5 3fbe 2001 e2bd fcc9 b6bc 37af aabb
000003d0: f89c d2bd 0572 1bbe fb31 6ebe 0bc8 1abe
000003e0: bcd1 123d e312 f5bd 3a72 6abd 61ee fabc
000003f0: 8e00 5dbc 3d33 31be 0876 febd 673d 37be

layers.1.weight f4 [7, 256]
-0.0325769 -1.2114404 0.3102033 0.61474127 0.15452763 -0.92522746 0.48083982 0.38576305
0.4783463 -0.14086972 0.58530533 0.33009294 0.5319139 -0.2707895 -0.68315834 0.66736907
-0.076255016 -0.45700333 0.40089652 0.11506226 -0.09457868 -1.0731331 -0.6242542 -0.42442885
-0.13454378 0.71273696 0.50005215 -0.13485493 0.01114136 -0.44663638 0.41558737 -0.474544
0.51599306 -1.0358981 -0.8532463 -0.22166708 -0.10063957 0.45995495 -0.41960582 0.12918586
-0.5790629 -0.16617331 -0.3145832 -0.26997292 0.1493301 -0.711533 0.36288953 -0.20912875
-0.47711062 -0.12517425 -0.58547455 0.30257127 0.40849987 0.46954578 -0.7431367 -0.2837833
-0.4457668 -0.51365995 0.3935129 -0.42345074 0.537992 0.41078117 0.102208644 0.84044653
-0.8011637 -0.75016546 -0.24814337 0.40468103 -0.067737415 0.43592796 -0.7802266 0.44181433
-0.036684223 -0.6147339 0.03763529 0.18303895 0.1375803 -0.35510772 0.8010193 -0.5655815
0.55034095 -0.4871723 -0.1988148 0.7096399 -0.22152328 -0.2701751 -0.30429173 -0.090689145
0.17342563 0.18657133 0.04633555 0.8888056 0.2789279 0.29586366 0.7032001 -1.2646929
-0.4018932 -0.007337449 0.33103514 -0.8038002 0.38768083 -0.7946643 -0.3959461 0.47215438
0.05066561 0.20929563 0.7864856 -0.08953585 -0.54771787 0.32842684 0.3161787 0.21775211
0.25423065 0.3421032 0.27847975 -0.3989415 -0.1868811 -0.4381771 0.11666953 -0.8980697
0.06972255 -0.17992334 0.13897963 0.49748528 0.47444603 0.18677036 -0.5832115 0.44275752
-0.35510367 -0.71665686 0.9016766 0.50532854 0.18257359 0.1826785 0.4776642 -0.09880489
-0.1709998 0.08677158 0.37554687 -0.43876484 -0.30400854 -0.81861496 -0.61787057 0.6210589
-0.5378355 -0.46469253 0.15671241 0.30143097 0.4982835 0.11305392 0.12642995 -0.38395295
0.11608035 -0.090518296 0.7076826 0.49412534 -0.8170708 0.505107 -0.17271031 -0.16741276
0.5248497 0.42564413 -0.121448144 0.19074367 -0.8140653 -0.087578915 -0.24457176 0.3683335
0.046529163 0.1960658 -0.05381726 -0.14909853 0.3096482 -0.708645 0.97780246 -0.52926046
-0.2503642 -0.9381829 0.20307991 -0.36760783 -0.7689505 -0.41164002 0.26210225 -0.54845774
0.046894994 -0.747646 -0.1433492 0.43232703 -0.819566 -0.46043324 0.6458495 0.24028434
-0.2446548 -0.2487318 0.2602014 -0.91214675 0.0809987 0.60693663 -0.5567522 -0.8373394
-0.31596056 0.42878038 -0.39965332 -0.50650704 0.23648606 0.33101758 -0.6900881 0.40187517
-0.37138525 0.29335424 -0.42496362 -0.28852588 -0.13268353 -0.68816537 -0.13410954 1.0449427
0.443569 -0.6490097 0.62998605 -0.634995 1.0964786 -0.7011218 0.34846735 -0.31832972
0.18240483 0.2716771 0.45460838 -0.14513174 -0.4476076 -0.3887033 0.080421105 -0.41642118
0.16275147 -0.73156387 -0.55240315 -0.030196508 0.9303657 0.5873052 0.10082131 -0.3511156
-0.75051886 0.1876377 0.968236 0.27428985 -0.3624264 -0.9092245 0.5941303 0.022587098
0.5873417 0.36016372 -0.3163301 0.02277661 0.3550554 -0.9271782 0.0734356 0.10597802
00000000: 5b6f 05bd 7b10 9bbf f8d2 9e3e af5f 1d3f
00000010: 7e3c 1e3e b5db 6cbf a330 f63e bc82 c53e
00000020: cee9 f43e 2740 10be 92d6 153f f101 a93e
00000030: 822b 083f eca4 8abe 77e3 2ebf b3d8 2a3f
00000040: 972b 9cbd 57fc e9be 4f42 cd3e c3a5 eb3d
00000050: 78b2 c1bd 6d5c 89bf 20cf 1fbf bd4e d9be
00000060: d8c5 09be ee75 363f 6b03 003f 6917 0abe
00000070: 408a 363c 86ad e4be dec7 d43e 6ef7 f2be
00000080: 1f18 043f 4f98 84bf 596e 5abf b2fc 62be
00000090: 1e1c cebd 377f eb3e 93d6 d6be 4c49 043e
000000a0: 773d 14bf 5629 2abe 0d11 a1be e439 8abe
000000b0: fde9 183e 0727 36bf a8cc b93e d925 56be
000000c0: d847 f4be ae2d 00be a9e1 15bf 9fea 9a3e
000000d0: e526 d13e 4e68 f03e 353e 3ebf 0b4c 91be
000000e0: 8c3b e4be 387f 03bf 867a c93e 89ce d8be
000000f0: d8b9 093f e951 d23e c452 d13d 8127 573f
00000100: 1019 4dbf d80a 40bf 4c19 7ebe 5a32 cf3e
00000110: eab9 8abd f331 df3e eebc 47bf 7d35 e23e
00000120: 3242 16bd 335f 1dbf 7627 1a3d 906e 3b3e
00000130: dae1 0c3e aed0 b5be 9a0f 4d3f f3c9 10bf
00000140: 25e3 0c3f a66e f9be 1b96 4bbe f6aa 353f
00000150: 00d7 62be 6454 8abe 20cc 9bbe 3bbb b9bd
00000160: 7d96 313e 8e0c 3f3e 58ca 3d3d c488 633f
00000170: a3cf 8e3e 717b 973e ec04 343f 75e1 a1bf
00000180: f2c4 cdbe fc6e f0bb 707d a93e dac5 4dbf
00000190: 1a7e c63e 1f6f 4bbf 72b9 cabe 38be f13e
000001a0: be86 4f3d 9851 563e 1f57 493f 925e b7bd
000001b0: 3d37 0cbf 9027 a83e 2de2 a13e 69fa 5e3e
000001c0: 852a 823e 2728 af3e e694 8e3e 0f42 ccbe
000001d0: c25d 3fbe c058 e0be 6ff0 ee3d e5e7 65bf
000001e0: b2ca 8e3d d33d 38be ad50 0e3e 64b6 fe3e
000001f0: 97ea f23e bb40 3f3e 594d 15bf 1db1 e23e
00000200: 26d0 b5be d376 37bf 47d4 663f 365d 013f
00000210: 92f4 3a3e 1310 3b3e 6790 f43e 385a cabd
00000220: 921a 2fbe 4cb5 b13d ae47 c03e c9a5 e0be
00000230: 02a7 9bbe c090 51bf c42c 1ebf b7fd 1e3f
00000240: 96af 09bf 2eec edbe 3879 203e 2955 9a3e
00000250: 041f ff3e d088 e73d da76 013e 7b95 c4be
00000260: 89bb ed3d a861 b9bd b02a 353f fffd fc3e
00000270: 8d2b 51bf b14e 013f f9da 30be 406e 2bbe
00000280: 8d5c 063f 07ee d93e ceb9 f8bd 4f52 433e
00000290: 9566 50bf 935c b3bd 0571 7abe 3596 bc3e
000002a0: 5d95 3e3d 79c5 483e 7d6f 5cbd 49ad 18be
000002b0: 358a 9e3e c269 35bf 4351 7a3f 9d7d 07bf
000002c0: bd2f 80be c12c 70bf 2ef4 4f3e 1837 bcbe
000002d0: f1d9 44bf 7bc2 d2be 4432 863e ba67 0cbf
000002e0: f714 403d ba65 3fbf 22ca 12be f859 dd3e
000002f0: 14cf 51bf e8bd ebbe 6556 253f 190d 763e
00000300: ca86 7abe 8db3 7ebe 1e39 853e 7382 69bf
00000310: a5e2 a53d 3360 1b3f 5087 0ebf e05b 56bf
00000320: 95c5 a1be 1a89 db3e 5c9f ccbe 72aa 01bf
00000330: 6729 723e 237b a93e 9da9 30bf 95c2 cd3e
00000340: 3526 bebe 8732 963e d594 d9be aab9 93be
00000350: 31de 07be 9b2b 30bf 0354 09be afc0 853f
00000360: 7a1b e33e 8025 26bf c446 213f 088f 22bf
00000370: 6959 8c3f b87c 33bf 506a b23e 1dfc a2be
00000380: 55c8 3a3e 4319 8b3e 6ec2 e83e 6a9d 14be
00000390: d32c e5be 1e04 c7be d2b3 a43d 2835 d5be
000003a0: 52a8 263e c547 3bbf 4b6a 0dbf ab5e f7bc
000003b0: 722c 6e3f a259 163f 677b ce3d 6dc5 b3be
000003c0: 0122 40bf 1924 403e 51de 773f b86f 8c3e
000003d0: f48f b9be f0c2 68bf ec18 183f 9408 b93c
000003e0: 075c 163f 6167 b83e 05f6 a1be 0396 ba3c
000003f0: d2c9 b53e 8d5b 6dbf 6765 963d 010b d93d

layers.1.bias f4 [7]
-0.002734495 -0.010310399 0.006383434 -0.018552642 -0.0021517093 0.0038416719 -0.007949018
00000000: 3735 33bb f3ec 28bc 202c d13b b6fb 97bc
00000010: b103 0dbb 8fc4 7b3b 993c 02bc
